…
2024-05-16 19:06:47,440 INFO: Dataset [PairedImageDataset] - DF2K is built.
2024-05-16 19:06:47,440 INFO: Training statistics:
	Number of train images: 3550
	Dataset enlarge ratio: 1
	Batch size per gpu: 8
	World size (gpu number): 1
	Require iter number per epoch: 444
	Total epochs: 564; iters: 250000.
2024-05-16 19:06:47,466 INFO: Dataset [PairedImageDataset] - Set5 is built.
2024-05-16 19:06:47,467 INFO: Number of val images/folders in Set5: 5
2024-05-16 19:06:48,319 INFO: Network [DAT] is created.
2024-05-16 19:07:14,070 INFO: Network: DistributedDataParallel - DAT, with parameters: 11,212,131
2024-05-16 19:07:14,075 INFO: DAT(
  (conv_first): Conv2d(3, 180, kernel_size=(3, 3), stride=(1, 1), padding=(1, 1))
  (before_RG): Sequential(
    (0): Rearrange('b c h w -> b (h w) c')
    (1): LayerNorm((180,), eps=1e-05, elementwise_affine=True)
  )
  (layers): ModuleList(
    (0): ResidualGroup(
      (blocks): ModuleList(
        (0): DATB(
          (norm1): LayerNorm((180,), eps=1e-05, elementwise_affine=True)
          (attn): Adaptive_Spatial_Attention(
            (qkv): Linear(in_features=180, out_features=540, bias=True)
            (proj): Linear(in_features=180, out_features=180, bias=True)
            (proj_drop): Dropout(p=0.0, inplace=False)
            (attns): ModuleList(
              (0): Spatial_Attention(
                (pos): DynamicPosBias(
                  (pos_proj): Linear(in_features=2, out_features=5, bias=True)
                  (pos1): Sequential(
                    (0): LayerNorm((5,), eps=1e-05, elementwise_affine=True)
                    (1): ReLU(inplace=True)
                    (2): Linear(in_features=5, out_features=5, bias=True)
                  )
                  (pos2): Sequential(
                    (0): LayerNorm((5,), eps=1e-05, elementwise_affine=True)
                    (1): ReLU(inplace=True)
                    (2): Linear(in_features=5, out_features=5, bias=True)
                  )
                  (pos3): Sequential(
                    (0): LayerNorm((5,), eps=1e-05, elementwise_affine=True)
                    (1): ReLU(inplace=True)
                    (2): Linear(in_features=5, out_features=3, bias=True)
                  )
                )
                (attn_drop): Dropout(p=0.0, inplace=False)
              )
              (1): Spatial_Attention(
                (pos): DynamicPosBias(
                  (pos_proj): Linear(in_features=2, out_features=5, bias=True)
                  (pos1): Sequential(
                    (0): LayerNorm((5,), eps=1e-05, elementwise_affine=True)
                    (1): ReLU(inplace=True)
                    (2): Linear(in_features=5, out_features=5, bias=True)
                  )
                  (pos2): Sequential(
                    (0): LayerNorm((5,), eps=1e-05, elementwise_affine=True)
                    (1): ReLU(inplace=True)
                    (2): Linear(in_features=5, out_features=5, bias=True)
                  )
                  (pos3): Sequential(
                    (0): LayerNorm((5,), eps=1e-05, elementwise_affine=True)
                    (1): ReLU(inplace=True)
                    (2): Linear(in_features=5, out_features=3, bias=True)
                  )
                )
                (attn_drop): Dropout(p=0.0, inplace=False)
              )
            )
            (dwconv): Sequential(
              (0): Conv2d(180, 180, kernel_size=(3, 3), stride=(1, 1), padding=(1, 1), groups=180)
              (1): BatchNorm2d(180, eps=1e-05, momentum=0.1, affine=True, track_running_stats=True)
              (2): GELU()
            )
            (channel_interaction): Sequential(
              (0): AdaptiveAvgPool2d(output_size=1)
              (1): Conv2d(180, 22, kernel_size=(1, 1), stride=(1, 1))
              (2): BatchNorm2d(22, eps=1e-05, momentum=0.1, affine=True, track_running_stats=True)
              (3): GELU()
              (4): Conv2d(22, 180, kernel_size=(1, 1), stride=(1, 1))
            )
            (spatial_interaction): Sequential(
              (0): Conv2d(180, 11, kernel_size=(1, 1), stride=(1, 1))
              (1): BatchNorm2d(11, eps=1e-05, momentum=0.1, affine=True, track_running_stats=True)
              (2): GELU()
              (3): Conv2d(11, 1, kernel_size=(1, 1), stride=(1, 1))
            )
          )
          (drop_path): Identity()
          (ffn): SGFN(
            (fc1): Linear(in_features=180, out_features=360, bias=True)
            (act): GELU()
            (sg): SpatialGate(
              (norm): LayerNorm((180,), eps=1e-05, elementwise_affine=True)
              (conv): Conv2d(180, 180, kernel_size=(3, 3), stride=(1, 1), padding=(1, 1), groups=180)
            )
            (fc2): Linear(in_features=180, out_features=180, bias=True)
            (drop): Dropout(p=0.0, inplace=False)
          )
          (norm2): LayerNorm((180,), eps=1e-05, elementwise_affine=True)
        )
        (1): DATB(
          (norm1): LayerNorm((180,), eps=1e-05, elementwise_affine=True)
          (attn): Adaptive_Channel_Attention(
            (qkv): Linear(in_features=180, out_features=540, bias=True)
            (attn_drop): Dropout(p=0.0, inplace=False)
            (proj): Linear(in_features=180, out_features=180, bias=True)
            (proj_drop): Dropout(p=0.0, inplace=False)
            (dwconv): Sequential(
              (0): Conv2d(180, 180, kernel_size=(3, 3), stride=(1, 1), padding=(1, 1), groups=180)
              (1): BatchNorm2d(180, eps=1e-05, momentum=0.1, affine=True, track_running_stats=True)
              (2): GELU()
            )
            (channel_interaction): Sequential(
              (0): AdaptiveAvgPool2d(output_size=1)
              (1): Conv2d(180, 22, kernel_size=(1, 1), stride=(1, 1))
              (2): BatchNorm2d(22, eps=1e-05, momentum=0.1, affine=True, track_running_stats=True)
              (3): GELU()
              (4): Conv2d(22, 180, kernel_size=(1, 1), stride=(1, 1))
            )
            (spatial_interaction): Sequential(
              (0): Conv2d(180, 11, kernel_size=(1, 1), stride=(1, 1))
              (1): BatchNorm2d(11, eps=1e-05, momentum=0.1, affine=True, track_running_stats=True)
              (2): GELU()
              (3): Conv2d(11, 1, kernel_size=(1, 1), stride=(1, 1))
            )
          )
          (drop_path): DropPath(drop_prob=0.003)
          (ffn): SGFN(
            (fc1): Linear(in_features=180, out_features=360, bias=True)
            (act): GELU()
            (sg): SpatialGate(
              (norm): LayerNorm((180,), eps=1e-05, elementwise_affine=True)
              (conv): Conv2d(180, 180, kernel_size=(3, 3), stride=(1, 1), padding=(1, 1), groups=180)
            )
            (fc2): Linear(in_features=180, out_features=180, bias=True)
            (drop): Dropout(p=0.0, inplace=False)
          )
          (norm2): LayerNorm((180,), eps=1e-05, elementwise_affine=True)
        )
        (2): DATB(
          (norm1): LayerNorm((180,), eps=1e-05, elementwise_affine=True)
          (attn): Adaptive_Spatial_Attention(
            (qkv): Linear(in_features=180, out_features=540, bias=True)
            (proj): Linear(in_features=180, out_features=180, bias=True)
            (proj_drop): Dropout(p=0.0, inplace=False)
            (attns): ModuleList(
              (0): Spatial_Attention(
                (pos): DynamicPosBias(
                  (pos_proj): Linear(in_features=2, out_features=5, bias=True)
                  (pos1): Sequential(
                    (0): LayerNorm((5,), eps=1e-05, elementwise_affine=True)
                    (1): ReLU(inplace=True)
                    (2): Linear(in_features=5, out_features=5, bias=True)
                  )
                  (pos2): Sequential(
                    (0): LayerNorm((5,), eps=1e-05, elementwise_affine=True)
                    (1): ReLU(inplace=True)
                    (2): Linear(in_features=5, out_features=5, bias=True)
                  )
                  (pos3): Sequential(
                    (0): LayerNorm((5,), eps=1e-05, elementwise_affine=True)
                    (1): ReLU(inplace=True)
                    (2): Linear(in_features=5, out_features=3, bias=True)
                  )
                )
                (attn_drop): Dropout(p=0.0, inplace=False)
              )
              (1): Spatial_Attention(
                (pos): DynamicPosBias(
                  (pos_proj): Linear(in_features=2, out_features=5, bias=True)
                  (pos1): Sequential(
                    (0): LayerNorm((5,), eps=1e-05, elementwise_affine=True)
                    (1): ReLU(inplace=True)
                    (2): Linear(in_features=5, out_features=5, bias=True)
                  )
                  (pos2): Sequential(
                    (0): LayerNorm((5,), eps=1e-05, elementwise_affine=True)
                    (1): ReLU(inplace=True)
                    (2): Linear(in_features=5, out_features=5, bias=True)
                  )
                  (pos3): Sequential(
                    (0): LayerNorm((5,), eps=1e-05, elementwise_affine=True)
                    (1): ReLU(inplace=True)
                    (2): Linear(in_features=5, out_features=3, bias=True)
                  )
                )
                (attn_drop): Dropout(p=0.0, inplace=False)
              )
            )
            (dwconv): Sequential(
              (0): Conv2d(180, 180, kernel_size=(3, 3), stride=(1, 1), padding=(1, 1), groups=180)
              (1): BatchNorm2d(180, eps=1e-05, momentum=0.1, affine=True, track_running_stats=True)
              (2): GELU()
            )
            (channel_interaction): Sequential(
              (0): AdaptiveAvgPool2d(output_size=1)
              (1): Conv2d(180, 22, kernel_size=(1, 1), stride=(1, 1))
              (2): BatchNorm2d(22, eps=1e-05, momentum=0.1, affine=True, track_running_stats=True)
              (3): GELU()
              (4): Conv2d(22, 180, kernel_size=(1, 1), stride=(1, 1))
            )
            (spatial_interaction): Sequential(
              (0): Conv2d(180, 11, kernel_size=(1, 1), stride=(1, 1))
              (1): BatchNorm2d(11, eps=1e-05, momentum=0.1, affine=True, track_running_stats=True)
              (2): GELU()
              (3): Conv2d(11, 1, kernel_size=(1, 1), stride=(1, 1))
            )
          )
          (drop_path): DropPath(drop_prob=0.006)
          (ffn): SGFN(
            (fc1): Linear(in_features=180, out_features=360, bias=True)
            (act): GELU()
            (sg): SpatialGate(
              (norm): LayerNorm((180,), eps=1e-05, elementwise_affine=True)
              (conv): Conv2d(180, 180, kernel_size=(3, 3), stride=(1, 1), padding=(1, 1), groups=180)
            )
            (fc2): Linear(in_features=180, out_features=180, bias=True)
            (drop): Dropout(p=0.0, inplace=False)
          )
          (norm2): LayerNorm((180,), eps=1e-05, elementwise_affine=True)
        )
        (3): DATB(
          (norm1): LayerNorm((180,), eps=1e-05, elementwise_affine=True)
          (attn): Adaptive_Channel_Attention(
            (qkv): Linear(in_features=180, out_features=540, bias=True)
            (attn_drop): Dropout(p=0.0, inplace=False)
            (proj): Linear(in_features=180, out_features=180, bias=True)
            (proj_drop): Dropout(p=0.0, inplace=False)
            (dwconv): Sequential(
              (0): Conv2d(180, 180, kernel_size=(3, 3), stride=(1, 1), padding=(1, 1), groups=180)
              (1): BatchNorm2d(180, eps=1e-05, momentum=0.1, affine=True, track_running_stats=True)
              (2): GELU()
            )
            (channel_interaction): Sequential(
              (0): AdaptiveAvgPool2d(output_size=1)
              (1): Conv2d(180, 22, kernel_size=(1, 1), stride=(1, 1))
              (2): BatchNorm2d(22, eps=1e-05, momentum=0.1, affine=True, track_running_stats=True)
              (3): GELU()
              (4): Conv2d(22, 180, kernel_size=(1, 1), stride=(1, 1))
            )
            (spatial_interaction): Sequential(
              (0): Conv2d(180, 11, kernel_size=(1, 1), stride=(1, 1))
              (1): BatchNorm2d(11, eps=1e-05, momentum=0.1, affine=True, track_running_stats=True)
              (2): GELU()
              (3): Conv2d(11, 1, kernel_size=(1, 1), stride=(1, 1))
            )
          )
          (drop_path): DropPath(drop_prob=0.009)
          (ffn): SGFN(
            (fc1): Linear(in_features=180, out_features=360, bias=True)
            (act): GELU()
            (sg): SpatialGate(
              (norm): LayerNorm((180,), eps=1e-05, elementwise_affine=True)
              (conv): Conv2d(180, 180, kernel_size=(3, 3), stride=(1, 1), padding=(1, 1), groups=180)
            )
            (fc2): Linear(in_features=180, out_features=180, bias=True)
            (drop): Dropout(p=0.0, inplace=False)
          )
          (norm2): LayerNorm((180,), eps=1e-05, elementwise_affine=True)
        )
        (4): DATB(
          (norm1): LayerNorm((180,), eps=1e-05, elementwise_affine=True)
          (attn): Adaptive_Spatial_Attention(
            (qkv): Linear(in_features=180, out_features=540, bias=True)
            (proj): Linear(in_features=180, out_features=180, bias=True)
            (proj_drop): Dropout(p=0.0, inplace=False)
            (attns): ModuleList(
              (0): Spatial_Attention(
                (pos): DynamicPosBias(
                  (pos_proj): Linear(in_features=2, out_features=5, bias=True)
                  (pos1): Sequential(
                    (0): LayerNorm((5,), eps=1e-05, elementwise_affine=True)
                    (1): ReLU(inplace=True)
                    (2): Linear(in_features=5, out_features=5, bias=True)
                  )
                  (pos2): Sequential(
                    (0): LayerNorm((5,), eps=1e-05, elementwise_affine=True)
                    (1): ReLU(inplace=True)
                    (2): Linear(in_features=5, out_features=5, bias=True)
                  )
                  (pos3): Sequential(
                    (0): LayerNorm((5,), eps=1e-05, elementwise_affine=True)
                    (1): ReLU(inplace=True)
                    (2): Linear(in_features=5, out_features=3, bias=True)
                  )
                )
                (attn_drop): Dropout(p=0.0, inplace=False)
              )
              (1): Spatial_Attention(
                (pos): DynamicPosBias(
                  (pos_proj): Linear(in_features=2, out_features=5, bias=True)
                  (pos1): Sequential(
                    (0): LayerNorm((5,), eps=1e-05, elementwise_affine=True)
                    (1): ReLU(inplace=True)
                    (2): Linear(in_features=5, out_features=5, bias=True)
                  )
                  (pos2): Sequential(
                    (0): LayerNorm((5,), eps=1e-05, elementwise_affine=True)
                    (1): ReLU(inplace=True)
                    (2): Linear(in_features=5, out_features=5, bias=True)
                  )
                  (pos3): Sequential(
                    (0): LayerNorm((5,), eps=1e-05, elementwise_affine=True)
                    (1): ReLU(inplace=True)
                    (2): Linear(in_features=5, out_features=3, bias=True)
                  )
                )
                (attn_drop): Dropout(p=0.0, inplace=False)
              )
            )
            (dwconv): Sequential(
              (0): Conv2d(180, 180, kernel_size=(3, 3), stride=(1, 1), padding=(1, 1), groups=180)
              (1): BatchNorm2d(180, eps=1e-05, momentum=0.1, affine=True, track_running_stats=True)
              (2): GELU()
            )
            (channel_interaction): Sequential(
              (0): AdaptiveAvgPool2d(output_size=1)
              (1): Conv2d(180, 22, kernel_size=(1, 1), stride=(1, 1))
              (2): BatchNorm2d(22, eps=1e-05, momentum=0.1, affine=True, track_running_stats=True)
              (3): GELU()
              (4): Conv2d(22, 180, kernel_size=(1, 1), stride=(1, 1))
            )
            (spatial_interaction): Sequential(
              (0): Conv2d(180, 11, kernel_size=(1, 1), stride=(1, 1))
              (1): BatchNorm2d(11, eps=1e-05, momentum=0.1, affine=True, track_running_stats=True)
              (2): GELU()
              (3): Conv2d(11, 1, kernel_size=(1, 1), stride=(1, 1))
            )
          )
          (drop_path): DropPath(drop_prob=0.011)
          (ffn): SGFN(
            (fc1): Linear(in_features=180, out_features=360, bias=True)
            (act): GELU()
            (sg): SpatialGate(
              (norm): LayerNorm((180,), eps=1e-05, elementwise_affine=True)
              (conv): Conv2d(180, 180, kernel_size=(3, 3), stride=(1, 1), padding=(1, 1), groups=180)
            )
            (fc2): Linear(in_features=180, out_features=180, bias=True)
            (drop): Dropout(p=0.0, inplace=False)
          )
          (norm2): LayerNorm((180,), eps=1e-05, elementwise_affine=True)
        )
        (5): DATB(
          (norm1): LayerNorm((180,), eps=1e-05, elementwise_affine=True)
          (attn): Adaptive_Channel_Attention(
            (qkv): Linear(in_features=180, out_features=540, bias=True)
            (attn_drop): Dropout(p=0.0, inplace=False)
            (proj): Linear(in_features=180, out_features=180, bias=True)
            (proj_drop): Dropout(p=0.0, inplace=False)
            (dwconv): Sequential(
              (0): Conv2d(180, 180, kernel_size=(3, 3), stride=(1, 1), padding=(1, 1), groups=180)
              (1): BatchNorm2d(180, eps=1e-05, momentum=0.1, affine=True, track_running_stats=True)
              (2): GELU()
            )
            (channel_interaction): Sequential(
              (0): AdaptiveAvgPool2d(output_size=1)
              (1): Conv2d(180, 22, kernel_size=(1, 1), stride=(1, 1))
              (2): BatchNorm2d(22, eps=1e-05, momentum=0.1, affine=True, track_running_stats=True)
              (3): GELU()
              (4): Conv2d(22, 180, kernel_size=(1, 1), stride=(1, 1))
            )
            (spatial_interaction): Sequential(
              (0): Conv2d(180, 11, kernel_size=(1, 1), stride=(1, 1))
              (1): BatchNorm2d(11, eps=1e-05, momentum=0.1, affine=True, track_running_stats=True)
              (2): GELU()
              (3): Conv2d(11, 1, kernel_size=(1, 1), stride=(1, 1))
            )
          )
          (drop_path): DropPath(drop_prob=0.014)
          (ffn): SGFN(
            (fc1): Linear(in_features=180, out_features=360, bias=True)
            (act): GELU()
            (sg): SpatialGate(
              (norm): LayerNorm((180,), eps=1e-05, elementwise_affine=True)
              (conv): Conv2d(180, 180, kernel_size=(3, 3), stride=(1, 1), padding=(1, 1), groups=180)
            )
            (fc2): Linear(in_features=180, out_features=180, bias=True)
            (drop): Dropout(p=0.0, inplace=False)
          )
          (norm2): LayerNorm((180,), eps=1e-05, elementwise_affine=True)
        )
      )
      (conv): Conv2d(180, 180, kernel_size=(3, 3), stride=(1, 1), padding=(1, 1))
    )
    (1): ResidualGroup(
      (blocks): ModuleList(
        (0): DATB(
          (norm1): LayerNorm((180,), eps=1e-05, elementwise_affine=True)
          (attn): Adaptive_Spatial_Attention(
            (qkv): Linear(in_features=180, out_features=540, bias=True)
            (proj): Linear(in_features=180, out_features=180, bias=True)
            (proj_drop): Dropout(p=0.0, inplace=False)
            (attns): ModuleList(
              (0): Spatial_Attention(
                (pos): DynamicPosBias(
                  (pos_proj): Linear(in_features=2, out_features=5, bias=True)
                  (pos1): Sequential(
                    (0): LayerNorm((5,), eps=1e-05, elementwise_affine=True)
                    (1): ReLU(inplace=True)
                    (2): Linear(in_features=5, out_features=5, bias=True)
                  )
                  (pos2): Sequential(
                    (0): LayerNorm((5,), eps=1e-05, elementwise_affine=True)
                    (1): ReLU(inplace=True)
                    (2): Linear(in_features=5, out_features=5, bias=True)
                  )
                  (pos3): Sequential(
                    (0): LayerNorm((5,), eps=1e-05, elementwise_affine=True)
                    (1): ReLU(inplace=True)
                    (2): Linear(in_features=5, out_features=3, bias=True)
                  )
                )
                (attn_drop): Dropout(p=0.0, inplace=False)
              )
              (1): Spatial_Attention(
                (pos): DynamicPosBias(
                  (pos_proj): Linear(in_features=2, out_features=5, bias=True)
                  (pos1): Sequential(
                    (0): LayerNorm((5,), eps=1e-05, elementwise_affine=True)
                    (1): ReLU(inplace=True)
                    (2): Linear(in_features=5, out_features=5, bias=True)
                  )
                  (pos2): Sequential(
                    (0): LayerNorm((5,), eps=1e-05, elementwise_affine=True)
                    (1): ReLU(inplace=True)
                    (2): Linear(in_features=5, out_features=5, bias=True)
                  )
                  (pos3): Sequential(
                    (0): LayerNorm((5,), eps=1e-05, elementwise_affine=True)
                    (1): ReLU(inplace=True)
                    (2): Linear(in_features=5, out_features=3, bias=True)
                  )
                )
                (attn_drop): Dropout(p=0.0, inplace=False)
              )
            )
            (dwconv): Sequential(
              (0): Conv2d(180, 180, kernel_size=(3, 3), stride=(1, 1), padding=(1, 1), groups=180)
              (1): BatchNorm2d(180, eps=1e-05, momentum=0.1, affine=True, track_running_stats=True)
              (2): GELU()
            )
            (channel_interaction): Sequential(
              (0): AdaptiveAvgPool2d(output_size=1)
              (1): Conv2d(180, 22, kernel_size=(1, 1), stride=(1, 1))
              (2): BatchNorm2d(22, eps=1e-05, momentum=0.1, affine=True, track_running_stats=True)
              (3): GELU()
              (4): Conv2d(22, 180, kernel_size=(1, 1), stride=(1, 1))
            )
            (spatial_interaction): Sequential(
              (0): Conv2d(180, 11, kernel_size=(1, 1), stride=(1, 1))
              (1): BatchNorm2d(11, eps=1e-05, momentum=0.1, affine=True, track_running_stats=True)
              (2): GELU()
              (3): Conv2d(11, 1, kernel_size=(1, 1), stride=(1, 1))
            )
          )
          (drop_path): DropPath(drop_prob=0.017)
          (ffn): SGFN(
            (fc1): Linear(in_features=180, out_features=360, bias=True)
            (act): GELU()
            (sg): SpatialGate(
              (norm): LayerNorm((180,), eps=1e-05, elementwise_affine=True)
              (conv): Conv2d(180, 180, kernel_size=(3, 3), stride=(1, 1), padding=(1, 1), groups=180)
            )
            (fc2): Linear(in_features=180, out_features=180, bias=True)
            (drop): Dropout(p=0.0, inplace=False)
          )
          (norm2): LayerNorm((180,), eps=1e-05, elementwise_affine=True)
        )
        (1): DATB(
          (norm1): LayerNorm((180,), eps=1e-05, elementwise_affine=True)
          (attn): Adaptive_Channel_Attention(
            (qkv): Linear(in_features=180, out_features=540, bias=True)
            (attn_drop): Dropout(p=0.0, inplace=False)
            (proj): Linear(in_features=180, out_features=180, bias=True)
            (proj_drop): Dropout(p=0.0, inplace=False)
            (dwconv): Sequential(
              (0): Conv2d(180, 180, kernel_size=(3, 3), stride=(1, 1), padding=(1, 1), groups=180)
              (1): BatchNorm2d(180, eps=1e-05, momentum=0.1, affine=True, track_running_stats=True)
              (2): GELU()
            )
            (channel_interaction): Sequential(
              (0): AdaptiveAvgPool2d(output_size=1)
              (1): Conv2d(180, 22, kernel_size=(1, 1), stride=(1, 1))
              (2): BatchNorm2d(22, eps=1e-05, momentum=0.1, affine=True, track_running_stats=True)
              (3): GELU()
              (4): Conv2d(22, 180, kernel_size=(1, 1), stride=(1, 1))
            )
            (spatial_interaction): Sequential(
              (0): Conv2d(180, 11, kernel_size=(1, 1), stride=(1, 1))
              (1): BatchNorm2d(11, eps=1e-05, momentum=0.1, affine=True, track_running_stats=True)
              (2): GELU()
              (3): Conv2d(11, 1, kernel_size=(1, 1), stride=(1, 1))
            )
          )
          (drop_path): DropPath(drop_prob=0.020)
          (ffn): SGFN(
            (fc1): Linear(in_features=180, out_features=360, bias=True)
            (act): GELU()
            (sg): SpatialGate(
              (norm): LayerNorm((180,), eps=1e-05, elementwise_affine=True)
              (conv): Conv2d(180, 180, kernel_size=(3, 3), stride=(1, 1), padding=(1, 1), groups=180)
            )
            (fc2): Linear(in_features=180, out_features=180, bias=True)
            (drop): Dropout(p=0.0, inplace=False)
          )
          (norm2): LayerNorm((180,), eps=1e-05, elementwise_affine=True)
        )
        (2): DATB(
          (norm1): LayerNorm((180,), eps=1e-05, elementwise_affine=True)
          (attn): Adaptive_Spatial_Attention(
            (qkv): Linear(in_features=180, out_features=540, bias=True)
            (proj): Linear(in_features=180, out_features=180, bias=True)
            (proj_drop): Dropout(p=0.0, inplace=False)
            (attns): ModuleList(
              (0): Spatial_Attention(
                (pos): DynamicPosBias(
                  (pos_proj): Linear(in_features=2, out_features=5, bias=True)
                  (pos1): Sequential(
                    (0): LayerNorm((5,), eps=1e-05, elementwise_affine=True)
                    (1): ReLU(inplace=True)
                    (2): Linear(in_features=5, out_features=5, bias=True)
                  )
                  (pos2): Sequential(
                    (0): LayerNorm((5,), eps=1e-05, elementwise_affine=True)
                    (1): ReLU(inplace=True)
                    (2): Linear(in_features=5, out_features=5, bias=True)
                  )
                  (pos3): Sequential(
                    (0): LayerNorm((5,), eps=1e-05, elementwise_affine=True)
                    (1): ReLU(inplace=True)
                    (2): Linear(in_features=5, out_features=3, bias=True)
                  )
                )
                (attn_drop): Dropout(p=0.0, inplace=False)
              )
              (1): Spatial_Attention(
                (pos): DynamicPosBias(
                  (pos_proj): Linear(in_features=2, out_features=5, bias=True)
                  (pos1): Sequential(
                    (0): LayerNorm((5,), eps=1e-05, elementwise_affine=True)
                    (1): ReLU(inplace=True)
                    (2): Linear(in_features=5, out_features=5, bias=True)
                  )
                  (pos2): Sequential(
                    (0): LayerNorm((5,), eps=1e-05, elementwise_affine=True)
                    (1): ReLU(inplace=True)
                    (2): Linear(in_features=5, out_features=5, bias=True)
                  )
                  (pos3): Sequential(
                    (0): LayerNorm((5,), eps=1e-05, elementwise_affine=True)
                    (1): ReLU(inplace=True)
                    (2): Linear(in_features=5, out_features=3, bias=True)
                  )
                )
                (attn_drop): Dropout(p=0.0, inplace=False)
              )
            )
            (dwconv): Sequential(
              (0): Conv2d(180, 180, kernel_size=(3, 3), stride=(1, 1), padding=(1, 1), groups=180)
              (1): BatchNorm2d(180, eps=1e-05, momentum=0.1, affine=True, track_running_stats=True)
              (2): GELU()
            )
            (channel_interaction): Sequential(
              (0): AdaptiveAvgPool2d(output_size=1)
              (1): Conv2d(180, 22, kernel_size=(1, 1), stride=(1, 1))
              (2): BatchNorm2d(22, eps=1e-05, momentum=0.1, affine=True, track_running_stats=True)
              (3): GELU()
              (4): Conv2d(22, 180, kernel_size=(1, 1), stride=(1, 1))
            )
            (spatial_interaction): Sequential(
              (0): Conv2d(180, 11, kernel_size=(1, 1), stride=(1, 1))
              (1): BatchNorm2d(11, eps=1e-05, momentum=0.1, affine=True, track_running_stats=True)
              (2): GELU()
              (3): Conv2d(11, 1, kernel_size=(1, 1), stride=(1, 1))
            )
          )
          (drop_path): DropPath(drop_prob=0.023)
          (ffn): SGFN(
            (fc1): Linear(in_features=180, out_features=360, bias=True)
            (act): GELU()
            (sg): SpatialGate(
              (norm): LayerNorm((180,), eps=1e-05, elementwise_affine=True)
              (conv): Conv2d(180, 180, kernel_size=(3, 3), stride=(1, 1), padding=(1, 1), groups=180)
            )
            (fc2): Linear(in_features=180, out_features=180, bias=True)
            (drop): Dropout(p=0.0, inplace=False)
          )
          (norm2): LayerNorm((180,), eps=1e-05, elementwise_affine=True)
        )
        (3): DATB(
          (norm1): LayerNorm((180,), eps=1e-05, elementwise_affine=True)
          (attn): Adaptive_Channel_Attention(
            (qkv): Linear(in_features=180, out_features=540, bias=True)
            (attn_drop): Dropout(p=0.0, inplace=False)
            (proj): Linear(in_features=180, out_features=180, bias=True)
            (proj_drop): Dropout(p=0.0, inplace=False)
            (dwconv): Sequential(
              (0): Conv2d(180, 180, kernel_size=(3, 3), stride=(1, 1), padding=(1, 1), groups=180)
              (1): BatchNorm2d(180, eps=1e-05, momentum=0.1, affine=True, track_running_stats=True)
              (2): GELU()
            )
            (channel_interaction): Sequential(
              (0): AdaptiveAvgPool2d(output_size=1)
              (1): Conv2d(180, 22, kernel_size=(1, 1), stride=(1, 1))
              (2): BatchNorm2d(22, eps=1e-05, momentum=0.1, affine=True, track_running_stats=True)
              (3): GELU()
              (4): Conv2d(22, 180, kernel_size=(1, 1), stride=(1, 1))
            )
            (spatial_interaction): Sequential(
              (0): Conv2d(180, 11, kernel_size=(1, 1), stride=(1, 1))
              (1): BatchNorm2d(11, eps=1e-05, momentum=0.1, affine=True, track_running_stats=True)
              (2): GELU()
              (3): Conv2d(11, 1, kernel_size=(1, 1), stride=(1, 1))
            )
          )
          (drop_path): DropPath(drop_prob=0.026)
          (ffn): SGFN(
            (fc1): Linear(in_features=180, out_features=360, bias=True)
            (act): GELU()
            (sg): SpatialGate(
              (norm): LayerNorm((180,), eps=1e-05, elementwise_affine=True)
              (conv): Conv2d(180, 180, kernel_size=(3, 3), stride=(1, 1), padding=(1, 1), groups=180)
            )
            (fc2): Linear(in_features=180, out_features=180, bias=True)
            (drop): Dropout(p=0.0, inplace=False)
          )
          (norm2): LayerNorm((180,), eps=1e-05, elementwise_affine=True)
        )
        (4): DATB(
          (norm1): LayerNorm((180,), eps=1e-05, elementwise_affine=True)
          (attn): Adaptive_Spatial_Attention(
            (qkv): Linear(in_features=180, out_features=540, bias=True)
            (proj): Linear(in_features=180, out_features=180, bias=True)
            (proj_drop): Dropout(p=0.0, inplace=False)
            (attns): ModuleList(
              (0): Spatial_Attention(
                (pos): DynamicPosBias(
                  (pos_proj): Linear(in_features=2, out_features=5, bias=True)
                  (pos1): Sequential(
                    (0): LayerNorm((5,), eps=1e-05, elementwise_affine=True)
                    (1): ReLU(inplace=True)
                    (2): Linear(in_features=5, out_features=5, bias=True)
                  )
                  (pos2): Sequential(
                    (0): LayerNorm((5,), eps=1e-05, elementwise_affine=True)
                    (1): ReLU(inplace=True)
                    (2): Linear(in_features=5, out_features=5, bias=True)
                  )
                  (pos3): Sequential(
                    (0): LayerNorm((5,), eps=1e-05, elementwise_affine=True)
                    (1): ReLU(inplace=True)
                    (2): Linear(in_features=5, out_features=3, bias=True)
                  )
                )
                (attn_drop): Dropout(p=0.0, inplace=False)
              )
              (1): Spatial_Attention(
                (pos): DynamicPosBias(
                  (pos_proj): Linear(in_features=2, out_features=5, bias=True)
                  (pos1): Sequential(
                    (0): LayerNorm((5,), eps=1e-05, elementwise_affine=True)
                    (1): ReLU(inplace=True)
                    (2): Linear(in_features=5, out_features=5, bias=True)
                  )
                  (pos2): Sequential(
                    (0): LayerNorm((5,), eps=1e-05, elementwise_affine=True)
                    (1): ReLU(inplace=True)
                    (2): Linear(in_features=5, out_features=5, bias=True)
                  )
                  (pos3): Sequential(
                    (0): LayerNorm((5,), eps=1e-05, elementwise_affine=True)
                    (1): ReLU(inplace=True)
                    (2): Linear(in_features=5, out_features=3, bias=True)
                  )
                )
                (attn_drop): Dropout(p=0.0, inplace=False)
              )
            )
            (dwconv): Sequential(
              (0): Conv2d(180, 180, kernel_size=(3, 3), stride=(1, 1), padding=(1, 1), groups=180)
              (1): BatchNorm2d(180, eps=1e-05, momentum=0.1, affine=True, track_running_stats=True)
              (2): GELU()
            )
            (channel_interaction): Sequential(
              (0): AdaptiveAvgPool2d(output_size=1)
              (1): Conv2d(180, 22, kernel_size=(1, 1), stride=(1, 1))
              (2): BatchNorm2d(22, eps=1e-05, momentum=0.1, affine=True, track_running_stats=True)
              (3): GELU()
              (4): Conv2d(22, 180, kernel_size=(1, 1), stride=(1, 1))
            )
            (spatial_interaction): Sequential(
              (0): Conv2d(180, 11, kernel_size=(1, 1), stride=(1, 1))
              (1): BatchNorm2d(11, eps=1e-05, momentum=0.1, affine=True, track_running_stats=True)
              (2): GELU()
              (3): Conv2d(11, 1, kernel_size=(1, 1), stride=(1, 1))
            )
          )
          (drop_path): DropPath(drop_prob=0.029)
          (ffn): SGFN(
            (fc1): Linear(in_features=180, out_features=360, bias=True)
            (act): GELU()
            (sg): SpatialGate(
              (norm): LayerNorm((180,), eps=1e-05, elementwise_affine=True)
              (conv): Conv2d(180, 180, kernel_size=(3, 3), stride=(1, 1), padding=(1, 1), groups=180)
            )
            (fc2): Linear(in_features=180, out_features=180, bias=True)
            (drop): Dropout(p=0.0, inplace=False)
          )
          (norm2): LayerNorm((180,), eps=1e-05, elementwise_affine=True)
        )
        (5): DATB(
          (norm1): LayerNorm((180,), eps=1e-05, elementwise_affine=True)
          (attn): Adaptive_Channel_Attention(
            (qkv): Linear(in_features=180, out_features=540, bias=True)
            (attn_drop): Dropout(p=0.0, inplace=False)
            (proj): Linear(in_features=180, out_features=180, bias=True)
            (proj_drop): Dropout(p=0.0, inplace=False)
            (dwconv): Sequential(
              (0): Conv2d(180, 180, kernel_size=(3, 3), stride=(1, 1), padding=(1, 1), groups=180)
              (1): BatchNorm2d(180, eps=1e-05, momentum=0.1, affine=True, track_running_stats=True)
              (2): GELU()
            )
            (channel_interaction): Sequential(
              (0): AdaptiveAvgPool2d(output_size=1)
              (1): Conv2d(180, 22, kernel_size=(1, 1), stride=(1, 1))
              (2): BatchNorm2d(22, eps=1e-05, momentum=0.1, affine=True, track_running_stats=True)
              (3): GELU()
              (4): Conv2d(22, 180, kernel_size=(1, 1), stride=(1, 1))
            )
            (spatial_interaction): Sequential(
              (0): Conv2d(180, 11, kernel_size=(1, 1), stride=(1, 1))
              (1): BatchNorm2d(11, eps=1e-05, momentum=0.1, affine=True, track_running_stats=True)
              (2): GELU()
              (3): Conv2d(11, 1, kernel_size=(1, 1), stride=(1, 1))
            )
          )
          (drop_path): DropPath(drop_prob=0.031)
          (ffn): SGFN(
            (fc1): Linear(in_features=180, out_features=360, bias=True)
            (act): GELU()
            (sg): SpatialGate(
              (norm): LayerNorm((180,), eps=1e-05, elementwise_affine=True)
              (conv): Conv2d(180, 180, kernel_size=(3, 3), stride=(1, 1), padding=(1, 1), groups=180)
            )
            (fc2): Linear(in_features=180, out_features=180, bias=True)
            (drop): Dropout(p=0.0, inplace=False)
          )
          (norm2): LayerNorm((180,), eps=1e-05, elementwise_affine=True)
        )
      )
      (conv): Conv2d(180, 180, kernel_size=(3, 3), stride=(1, 1), padding=(1, 1))
    )
    (2): ResidualGroup(
      (blocks): ModuleList(
        (0): DATB(
          (norm1): LayerNorm((180,), eps=1e-05, elementwise_affine=True)
          (attn): Adaptive_Spatial_Attention(
            (qkv): Linear(in_features=180, out_features=540, bias=True)
            (proj): Linear(in_features=180, out_features=180, bias=True)
            (proj_drop): Dropout(p=0.0, inplace=False)
            (attns): ModuleList(
              (0): Spatial_Attention(
                (pos): DynamicPosBias(
                  (pos_proj): Linear(in_features=2, out_features=5, bias=True)
                  (pos1): Sequential(
                    (0): LayerNorm((5,), eps=1e-05, elementwise_affine=True)
                    (1): ReLU(inplace=True)
                    (2): Linear(in_features=5, out_features=5, bias=True)
                  )
                  (pos2): Sequential(
                    (0): LayerNorm((5,), eps=1e-05, elementwise_affine=True)
                    (1): ReLU(inplace=True)
                    (2): Linear(in_features=5, out_features=5, bias=True)
                  )
                  (pos3): Sequential(
                    (0): LayerNorm((5,), eps=1e-05, elementwise_affine=True)
                    (1): ReLU(inplace=True)
                    (2): Linear(in_features=5, out_features=3, bias=True)
                  )
                )
                (attn_drop): Dropout(p=0.0, inplace=False)
              )
              (1): Spatial_Attention(
                (pos): DynamicPosBias(
                  (pos_proj): Linear(in_features=2, out_features=5, bias=True)
                  (pos1): Sequential(
                    (0): LayerNorm((5,), eps=1e-05, elementwise_affine=True)
                    (1): ReLU(inplace=True)
                    (2): Linear(in_features=5, out_features=5, bias=True)
                  )
                  (pos2): Sequential(
                    (0): LayerNorm((5,), eps=1e-05, elementwise_affine=True)
                    (1): ReLU(inplace=True)
                    (2): Linear(in_features=5, out_features=5, bias=True)
                  )
                  (pos3): Sequential(
                    (0): LayerNorm((5,), eps=1e-05, elementwise_affine=True)
                    (1): ReLU(inplace=True)
                    (2): Linear(in_features=5, out_features=3, bias=True)
                  )
                )
                (attn_drop): Dropout(p=0.0, inplace=False)
              )
            )
            (dwconv): Sequential(
              (0): Conv2d(180, 180, kernel_size=(3, 3), stride=(1, 1), padding=(1, 1), groups=180)
              (1): BatchNorm2d(180, eps=1e-05, momentum=0.1, affine=True, track_running_stats=True)
              (2): GELU()
            )
            (channel_interaction): Sequential(
              (0): AdaptiveAvgPool2d(output_size=1)
              (1): Conv2d(180, 22, kernel_size=(1, 1), stride=(1, 1))
              (2): BatchNorm2d(22, eps=1e-05, momentum=0.1, affine=True, track_running_stats=True)
              (3): GELU()
              (4): Conv2d(22, 180, kernel_size=(1, 1), stride=(1, 1))
            )
            (spatial_interaction): Sequential(
              (0): Conv2d(180, 11, kernel_size=(1, 1), stride=(1, 1))
              (1): BatchNorm2d(11, eps=1e-05, momentum=0.1, affine=True, track_running_stats=True)
              (2): GELU()
              (3): Conv2d(11, 1, kernel_size=(1, 1), stride=(1, 1))
            )
          )
          (drop_path): DropPath(drop_prob=0.034)
          (ffn): SGFN(
            (fc1): Linear(in_features=180, out_features=360, bias=True)
            (act): GELU()
            (sg): SpatialGate(
              (norm): LayerNorm((180,), eps=1e-05, elementwise_affine=True)
              (conv): Conv2d(180, 180, kernel_size=(3, 3), stride=(1, 1), padding=(1, 1), groups=180)
            )
            (fc2): Linear(in_features=180, out_features=180, bias=True)
            (drop): Dropout(p=0.0, inplace=False)
          )
          (norm2): LayerNorm((180,), eps=1e-05, elementwise_affine=True)
        )
        (1): DATB(
          (norm1): LayerNorm((180,), eps=1e-05, elementwise_affine=True)
          (attn): Adaptive_Channel_Attention(
            (qkv): Linear(in_features=180, out_features=540, bias=True)
            (attn_drop): Dropout(p=0.0, inplace=False)
            (proj): Linear(in_features=180, out_features=180, bias=True)
            (proj_drop): Dropout(p=0.0, inplace=False)
            (dwconv): Sequential(
              (0): Conv2d(180, 180, kernel_size=(3, 3), stride=(1, 1), padding=(1, 1), groups=180)
              (1): BatchNorm2d(180, eps=1e-05, momentum=0.1, affine=True, track_running_stats=True)
              (2): GELU()
            )
            (channel_interaction): Sequential(
              (0): AdaptiveAvgPool2d(output_size=1)
              (1): Conv2d(180, 22, kernel_size=(1, 1), stride=(1, 1))
              (2): BatchNorm2d(22, eps=1e-05, momentum=0.1, affine=True, track_running_stats=True)
              (3): GELU()
              (4): Conv2d(22, 180, kernel_size=(1, 1), stride=(1, 1))
            )
            (spatial_interaction): Sequential(
              (0): Conv2d(180, 11, kernel_size=(1, 1), stride=(1, 1))
              (1): BatchNorm2d(11, eps=1e-05, momentum=0.1, affine=True, track_running_stats=True)
              (2): GELU()
              (3): Conv2d(11, 1, kernel_size=(1, 1), stride=(1, 1))
            )
          )
          (drop_path): DropPath(drop_prob=0.037)
          (ffn): SGFN(
            (fc1): Linear(in_features=180, out_features=360, bias=True)
            (act): GELU()
            (sg): SpatialGate(
              (norm): LayerNorm((180,), eps=1e-05, elementwise_affine=True)
              (conv): Conv2d(180, 180, kernel_size=(3, 3), stride=(1, 1), padding=(1, 1), groups=180)
            )
            (fc2): Linear(in_features=180, out_features=180, bias=True)
            (drop): Dropout(p=0.0, inplace=False)
          )
          (norm2): LayerNorm((180,), eps=1e-05, elementwise_affine=True)
        )
        (2): DATB(
          (norm1): LayerNorm((180,), eps=1e-05, elementwise_affine=True)
          (attn): Adaptive_Spatial_Attention(
            (qkv): Linear(in_features=180, out_features=540, bias=True)
            (proj): Linear(in_features=180, out_features=180, bias=True)
            (proj_drop): Dropout(p=0.0, inplace=False)
            (attns): ModuleList(
              (0): Spatial_Attention(
                (pos): DynamicPosBias(
                  (pos_proj): Linear(in_features=2, out_features=5, bias=True)
                  (pos1): Sequential(
                    (0): LayerNorm((5,), eps=1e-05, elementwise_affine=True)
                    (1): ReLU(inplace=True)
                    (2): Linear(in_features=5, out_features=5, bias=True)
                  )
                  (pos2): Sequential(
                    (0): LayerNorm((5,), eps=1e-05, elementwise_affine=True)
                    (1): ReLU(inplace=True)
                    (2): Linear(in_features=5, out_features=5, bias=True)
                  )
                  (pos3): Sequential(
                    (0): LayerNorm((5,), eps=1e-05, elementwise_affine=True)
                    (1): ReLU(inplace=True)
                    (2): Linear(in_features=5, out_features=3, bias=True)
                  )
                )
                (attn_drop): Dropout(p=0.0, inplace=False)
              )
              (1): Spatial_Attention(
                (pos): DynamicPosBias(
                  (pos_proj): Linear(in_features=2, out_features=5, bias=True)
                  (pos1): Sequential(
                    (0): LayerNorm((5,), eps=1e-05, elementwise_affine=True)
                    (1): ReLU(inplace=True)
                    (2): Linear(in_features=5, out_features=5, bias=True)
                  )
                  (pos2): Sequential(
                    (0): LayerNorm((5,), eps=1e-05, elementwise_affine=True)
                    (1): ReLU(inplace=True)
                    (2): Linear(in_features=5, out_features=5, bias=True)
                  )
                  (pos3): Sequential(
                    (0): LayerNorm((5,), eps=1e-05, elementwise_affine=True)
                    (1): ReLU(inplace=True)
                    (2): Linear(in_features=5, out_features=3, bias=True)
                  )
                )
                (attn_drop): Dropout(p=0.0, inplace=False)
              )
            )
            (dwconv): Sequential(
              (0): Conv2d(180, 180, kernel_size=(3, 3), stride=(1, 1), padding=(1, 1), groups=180)
              (1): BatchNorm2d(180, eps=1e-05, momentum=0.1, affine=True, track_running_stats=True)
              (2): GELU()
            )
            (channel_interaction): Sequential(
              (0): AdaptiveAvgPool2d(output_size=1)
              (1): Conv2d(180, 22, kernel_size=(1, 1), stride=(1, 1))
              (2): BatchNorm2d(22, eps=1e-05, momentum=0.1, affine=True, track_running_stats=True)
              (3): GELU()
              (4): Conv2d(22, 180, kernel_size=(1, 1), stride=(1, 1))
            )
            (spatial_interaction): Sequential(
              (0): Conv2d(180, 11, kernel_size=(1, 1), stride=(1, 1))
              (1): BatchNorm2d(11, eps=1e-05, momentum=0.1, affine=True, track_running_stats=True)
              (2): GELU()
              (3): Conv2d(11, 1, kernel_size=(1, 1), stride=(1, 1))
            )
          )
          (drop_path): DropPath(drop_prob=0.040)
          (ffn): SGFN(
            (fc1): Linear(in_features=180, out_features=360, bias=True)
            (act): GELU()
            (sg): SpatialGate(
              (norm): LayerNorm((180,), eps=1e-05, elementwise_affine=True)
              (conv): Conv2d(180, 180, kernel_size=(3, 3), stride=(1, 1), padding=(1, 1), groups=180)
            )
            (fc2): Linear(in_features=180, out_features=180, bias=True)
            (drop): Dropout(p=0.0, inplace=False)
          )
          (norm2): LayerNorm((180,), eps=1e-05, elementwise_affine=True)
        )
        (3): DATB(
          (norm1): LayerNorm((180,), eps=1e-05, elementwise_affine=True)
          (attn): Adaptive_Channel_Attention(
            (qkv): Linear(in_features=180, out_features=540, bias=True)
            (attn_drop): Dropout(p=0.0, inplace=False)
            (proj): Linear(in_features=180, out_features=180, bias=True)
            (proj_drop): Dropout(p=0.0, inplace=False)
            (dwconv): Sequential(
              (0): Conv2d(180, 180, kernel_size=(3, 3), stride=(1, 1), padding=(1, 1), groups=180)
              (1): BatchNorm2d(180, eps=1e-05, momentum=0.1, affine=True, track_running_stats=True)
              (2): GELU()
            )
            (channel_interaction): Sequential(
              (0): AdaptiveAvgPool2d(output_size=1)
              (1): Conv2d(180, 22, kernel_size=(1, 1), stride=(1, 1))
              (2): BatchNorm2d(22, eps=1e-05, momentum=0.1, affine=True, track_running_stats=True)
              (3): GELU()
              (4): Conv2d(22, 180, kernel_size=(1, 1), stride=(1, 1))
            )
            (spatial_interaction): Sequential(
              (0): Conv2d(180, 11, kernel_size=(1, 1), stride=(1, 1))
              (1): BatchNorm2d(11, eps=1e-05, momentum=0.1, affine=True, track_running_stats=True)
              (2): GELU()
              (3): Conv2d(11, 1, kernel_size=(1, 1), stride=(1, 1))
            )
          )
          (drop_path): DropPath(drop_prob=0.043)
          (ffn): SGFN(
            (fc1): Linear(in_features=180, out_features=360, bias=True)
            (act): GELU()
            (sg): SpatialGate(
              (norm): LayerNorm((180,), eps=1e-05, elementwise_affine=True)
              (conv): Conv2d(180, 180, kernel_size=(3, 3), stride=(1, 1), padding=(1, 1), groups=180)
            )
            (fc2): Linear(in_features=180, out_features=180, bias=True)
            (drop): Dropout(p=0.0, inplace=False)
          )
          (norm2): LayerNorm((180,), eps=1e-05, elementwise_affine=True)
        )
        (4): DATB(
          (norm1): LayerNorm((180,), eps=1e-05, elementwise_affine=True)
          (attn): Adaptive_Spatial_Attention(
            (qkv): Linear(in_features=180, out_features=540, bias=True)
            (proj): Linear(in_features=180, out_features=180, bias=True)
            (proj_drop): Dropout(p=0.0, inplace=False)
            (attns): ModuleList(
              (0): Spatial_Attention(
                (pos): DynamicPosBias(
                  (pos_proj): Linear(in_features=2, out_features=5, bias=True)
                  (pos1): Sequential(
                    (0): LayerNorm((5,), eps=1e-05, elementwise_affine=True)
                    (1): ReLU(inplace=True)
                    (2): Linear(in_features=5, out_features=5, bias=True)
                  )
                  (pos2): Sequential(
                    (0): LayerNorm((5,), eps=1e-05, elementwise_affine=True)
                    (1): ReLU(inplace=True)
                    (2): Linear(in_features=5, out_features=5, bias=True)
                  )
                  (pos3): Sequential(
                    (0): LayerNorm((5,), eps=1e-05, elementwise_affine=True)
                    (1): ReLU(inplace=True)
                    (2): Linear(in_features=5, out_features=3, bias=True)
                  )
                )
                (attn_drop): Dropout(p=0.0, inplace=False)
              )
              (1): Spatial_Attention(
                (pos): DynamicPosBias(
                  (pos_proj): Linear(in_features=2, out_features=5, bias=True)
                  (pos1): Sequential(
                    (0): LayerNorm((5,), eps=1e-05, elementwise_affine=True)
                    (1): ReLU(inplace=True)
                    (2): Linear(in_features=5, out_features=5, bias=True)
                  )
                  (pos2): Sequential(
                    (0): LayerNorm((5,), eps=1e-05, elementwise_affine=True)
                    (1): ReLU(inplace=True)
                    (2): Linear(in_features=5, out_features=5, bias=True)
                  )
                  (pos3): Sequential(
                    (0): LayerNorm((5,), eps=1e-05, elementwise_affine=True)
                    (1): ReLU(inplace=True)
                    (2): Linear(in_features=5, out_features=3, bias=True)
                  )
                )
                (attn_drop): Dropout(p=0.0, inplace=False)
              )
            )
            (dwconv): Sequential(
              (0): Conv2d(180, 180, kernel_size=(3, 3), stride=(1, 1), padding=(1, 1), groups=180)
              (1): BatchNorm2d(180, eps=1e-05, momentum=0.1, affine=True, track_running_stats=True)
              (2): GELU()
            )
            (channel_interaction): Sequential(
              (0): AdaptiveAvgPool2d(output_size=1)
              (1): Conv2d(180, 22, kernel_size=(1, 1), stride=(1, 1))
              (2): BatchNorm2d(22, eps=1e-05, momentum=0.1, affine=True, track_running_stats=True)
              (3): GELU()
              (4): Conv2d(22, 180, kernel_size=(1, 1), stride=(1, 1))
            )
            (spatial_interaction): Sequential(
              (0): Conv2d(180, 11, kernel_size=(1, 1), stride=(1, 1))
              (1): BatchNorm2d(11, eps=1e-05, momentum=0.1, affine=True, track_running_stats=True)
              (2): GELU()
              (3): Conv2d(11, 1, kernel_size=(1, 1), stride=(1, 1))
            )
          )
          (drop_path): DropPath(drop_prob=0.046)
          (ffn): SGFN(
            (fc1): Linear(in_features=180, out_features=360, bias=True)
            (act): GELU()
            (sg): SpatialGate(
              (norm): LayerNorm((180,), eps=1e-05, elementwise_affine=True)
              (conv): Conv2d(180, 180, kernel_size=(3, 3), stride=(1, 1), padding=(1, 1), groups=180)
            )
            (fc2): Linear(in_features=180, out_features=180, bias=True)
            (drop): Dropout(p=0.0, inplace=False)
          )
          (norm2): LayerNorm((180,), eps=1e-05, elementwise_affine=True)
        )
        (5): DATB(
          (norm1): LayerNorm((180,), eps=1e-05, elementwise_affine=True)
          (attn): Adaptive_Channel_Attention(
            (qkv): Linear(in_features=180, out_features=540, bias=True)
            (attn_drop): Dropout(p=0.0, inplace=False)
            (proj): Linear(in_features=180, out_features=180, bias=True)
            (proj_drop): Dropout(p=0.0, inplace=False)
            (dwconv): Sequential(
              (0): Conv2d(180, 180, kernel_size=(3, 3), stride=(1, 1), padding=(1, 1), groups=180)
              (1): BatchNorm2d(180, eps=1e-05, momentum=0.1, affine=True, track_running_stats=True)
              (2): GELU()
            )
            (channel_interaction): Sequential(
              (0): AdaptiveAvgPool2d(output_size=1)
              (1): Conv2d(180, 22, kernel_size=(1, 1), stride=(1, 1))
              (2): BatchNorm2d(22, eps=1e-05, momentum=0.1, affine=True, track_running_stats=True)
              (3): GELU()
              (4): Conv2d(22, 180, kernel_size=(1, 1), stride=(1, 1))
            )
            (spatial_interaction): Sequential(
              (0): Conv2d(180, 11, kernel_size=(1, 1), stride=(1, 1))
              (1): BatchNorm2d(11, eps=1e-05, momentum=0.1, affine=True, track_running_stats=True)
              (2): GELU()
              (3): Conv2d(11, 1, kernel_size=(1, 1), stride=(1, 1))
            )
          )
          (drop_path): DropPath(drop_prob=0.049)
          (ffn): SGFN(
            (fc1): Linear(in_features=180, out_features=360, bias=True)
            (act): GELU()
            (sg): SpatialGate(
              (norm): LayerNorm((180,), eps=1e-05, elementwise_affine=True)
              (conv): Conv2d(180, 180, kernel_size=(3, 3), stride=(1, 1), padding=(1, 1), groups=180)
            )
            (fc2): Linear(in_features=180, out_features=180, bias=True)
            (drop): Dropout(p=0.0, inplace=False)
          )
          (norm2): LayerNorm((180,), eps=1e-05, elementwise_affine=True)
        )
      )
      (conv): Conv2d(180, 180, kernel_size=(3, 3), stride=(1, 1), padding=(1, 1))
    )
    (3): ResidualGroup(
      (blocks): ModuleList(
        (0): DATB(
          (norm1): LayerNorm((180,), eps=1e-05, elementwise_affine=True)
          (attn): Adaptive_Spatial_Attention(
            (qkv): Linear(in_features=180, out_features=540, bias=True)
            (proj): Linear(in_features=180, out_features=180, bias=True)
            (proj_drop): Dropout(p=0.0, inplace=False)
            (attns): ModuleList(
              (0): Spatial_Attention(
                (pos): DynamicPosBias(
                  (pos_proj): Linear(in_features=2, out_features=5, bias=True)
                  (pos1): Sequential(
                    (0): LayerNorm((5,), eps=1e-05, elementwise_affine=True)
                    (1): ReLU(inplace=True)
                    (2): Linear(in_features=5, out_features=5, bias=True)
                  )
                  (pos2): Sequential(
                    (0): LayerNorm((5,), eps=1e-05, elementwise_affine=True)
                    (1): ReLU(inplace=True)
                    (2): Linear(in_features=5, out_features=5, bias=True)
                  )
                  (pos3): Sequential(
                    (0): LayerNorm((5,), eps=1e-05, elementwise_affine=True)
                    (1): ReLU(inplace=True)
                    (2): Linear(in_features=5, out_features=3, bias=True)
                  )
                )
                (attn_drop): Dropout(p=0.0, inplace=False)
              )
              (1): Spatial_Attention(
                (pos): DynamicPosBias(
                  (pos_proj): Linear(in_features=2, out_features=5, bias=True)
                  (pos1): Sequential(
                    (0): LayerNorm((5,), eps=1e-05, elementwise_affine=True)
                    (1): ReLU(inplace=True)
                    (2): Linear(in_features=5, out_features=5, bias=True)
                  )
                  (pos2): Sequential(
                    (0): LayerNorm((5,), eps=1e-05, elementwise_affine=True)
                    (1): ReLU(inplace=True)
                    (2): Linear(in_features=5, out_features=5, bias=True)
                  )
                  (pos3): Sequential(
                    (0): LayerNorm((5,), eps=1e-05, elementwise_affine=True)
                    (1): ReLU(inplace=True)
                    (2): Linear(in_features=5, out_features=3, bias=True)
                  )
                )
                (attn_drop): Dropout(p=0.0, inplace=False)
              )
            )
            (dwconv): Sequential(
              (0): Conv2d(180, 180, kernel_size=(3, 3), stride=(1, 1), padding=(1, 1), groups=180)
              (1): BatchNorm2d(180, eps=1e-05, momentum=0.1, affine=True, track_running_stats=True)
              (2): GELU()
            )
            (channel_interaction): Sequential(
              (0): AdaptiveAvgPool2d(output_size=1)
              (1): Conv2d(180, 22, kernel_size=(1, 1), stride=(1, 1))
              (2): BatchNorm2d(22, eps=1e-05, momentum=0.1, affine=True, track_running_stats=True)
              (3): GELU()
              (4): Conv2d(22, 180, kernel_size=(1, 1), stride=(1, 1))
            )
            (spatial_interaction): Sequential(
              (0): Conv2d(180, 11, kernel_size=(1, 1), stride=(1, 1))
              (1): BatchNorm2d(11, eps=1e-05, momentum=0.1, affine=True, track_running_stats=True)
              (2): GELU()
              (3): Conv2d(11, 1, kernel_size=(1, 1), stride=(1, 1))
            )
          )
          (drop_path): DropPath(drop_prob=0.051)
          (ffn): SGFN(
            (fc1): Linear(in_features=180, out_features=360, bias=True)
            (act): GELU()
            (sg): SpatialGate(
              (norm): LayerNorm((180,), eps=1e-05, elementwise_affine=True)
              (conv): Conv2d(180, 180, kernel_size=(3, 3), stride=(1, 1), padding=(1, 1), groups=180)
            )
            (fc2): Linear(in_features=180, out_features=180, bias=True)
            (drop): Dropout(p=0.0, inplace=False)
          )
          (norm2): LayerNorm((180,), eps=1e-05, elementwise_affine=True)
        )
        (1): DATB(
          (norm1): LayerNorm((180,), eps=1e-05, elementwise_affine=True)
          (attn): Adaptive_Channel_Attention(
            (qkv): Linear(in_features=180, out_features=540, bias=True)
            (attn_drop): Dropout(p=0.0, inplace=False)
            (proj): Linear(in_features=180, out_features=180, bias=True)
            (proj_drop): Dropout(p=0.0, inplace=False)
            (dwconv): Sequential(
              (0): Conv2d(180, 180, kernel_size=(3, 3), stride=(1, 1), padding=(1, 1), groups=180)
              (1): BatchNorm2d(180, eps=1e-05, momentum=0.1, affine=True, track_running_stats=True)
              (2): GELU()
            )
            (channel_interaction): Sequential(
              (0): AdaptiveAvgPool2d(output_size=1)
              (1): Conv2d(180, 22, kernel_size=(1, 1), stride=(1, 1))
              (2): BatchNorm2d(22, eps=1e-05, momentum=0.1, affine=True, track_running_stats=True)
              (3): GELU()
              (4): Conv2d(22, 180, kernel_size=(1, 1), stride=(1, 1))
            )
            (spatial_interaction): Sequential(
              (0): Conv2d(180, 11, kernel_size=(1, 1), stride=(1, 1))
              (1): BatchNorm2d(11, eps=1e-05, momentum=0.1, affine=True, track_running_stats=True)
              (2): GELU()
              (3): Conv2d(11, 1, kernel_size=(1, 1), stride=(1, 1))
            )
          )
          (drop_path): DropPath(drop_prob=0.054)
          (ffn): SGFN(
            (fc1): Linear(in_features=180, out_features=360, bias=True)
            (act): GELU()
            (sg): SpatialGate(
              (norm): LayerNorm((180,), eps=1e-05, elementwise_affine=True)
              (conv): Conv2d(180, 180, kernel_size=(3, 3), stride=(1, 1), padding=(1, 1), groups=180)
            )
            (fc2): Linear(in_features=180, out_features=180, bias=True)
            (drop): Dropout(p=0.0, inplace=False)
          )
          (norm2): LayerNorm((180,), eps=1e-05, elementwise_affine=True)
        )
        (2): DATB(
          (norm1): LayerNorm((180,), eps=1e-05, elementwise_affine=True)
          (attn): Adaptive_Spatial_Attention(
            (qkv): Linear(in_features=180, out_features=540, bias=True)
            (proj): Linear(in_features=180, out_features=180, bias=True)
            (proj_drop): Dropout(p=0.0, inplace=False)
            (attns): ModuleList(
              (0): Spatial_Attention(
                (pos): DynamicPosBias(
                  (pos_proj): Linear(in_features=2, out_features=5, bias=True)
                  (pos1): Sequential(
                    (0): LayerNorm((5,), eps=1e-05, elementwise_affine=True)
                    (1): ReLU(inplace=True)
                    (2): Linear(in_features=5, out_features=5, bias=True)
                  )
                  (pos2): Sequential(
                    (0): LayerNorm((5,), eps=1e-05, elementwise_affine=True)
                    (1): ReLU(inplace=True)
                    (2): Linear(in_features=5, out_features=5, bias=True)
                  )
                  (pos3): Sequential(
                    (0): LayerNorm((5,), eps=1e-05, elementwise_affine=True)
                    (1): ReLU(inplace=True)
                    (2): Linear(in_features=5, out_features=3, bias=True)
                  )
                )
                (attn_drop): Dropout(p=0.0, inplace=False)
              )
              (1): Spatial_Attention(
                (pos): DynamicPosBias(
                  (pos_proj): Linear(in_features=2, out_features=5, bias=True)
                  (pos1): Sequential(
                    (0): LayerNorm((5,), eps=1e-05, elementwise_affine=True)
                    (1): ReLU(inplace=True)
                    (2): Linear(in_features=5, out_features=5, bias=True)
                  )
                  (pos2): Sequential(
                    (0): LayerNorm((5,), eps=1e-05, elementwise_affine=True)
                    (1): ReLU(inplace=True)
                    (2): Linear(in_features=5, out_features=5, bias=True)
                  )
                  (pos3): Sequential(
                    (0): LayerNorm((5,), eps=1e-05, elementwise_affine=True)
                    (1): ReLU(inplace=True)
                    (2): Linear(in_features=5, out_features=3, bias=True)
                  )
                )
                (attn_drop): Dropout(p=0.0, inplace=False)
              )
            )
            (dwconv): Sequential(
              (0): Conv2d(180, 180, kernel_size=(3, 3), stride=(1, 1), padding=(1, 1), groups=180)
              (1): BatchNorm2d(180, eps=1e-05, momentum=0.1, affine=True, track_running_stats=True)
              (2): GELU()
            )
            (channel_interaction): Sequential(
              (0): AdaptiveAvgPool2d(output_size=1)
              (1): Conv2d(180, 22, kernel_size=(1, 1), stride=(1, 1))
              (2): BatchNorm2d(22, eps=1e-05, momentum=0.1, affine=True, track_running_stats=True)
              (3): GELU()
              (4): Conv2d(22, 180, kernel_size=(1, 1), stride=(1, 1))
            )
            (spatial_interaction): Sequential(
              (0): Conv2d(180, 11, kernel_size=(1, 1), stride=(1, 1))
              (1): BatchNorm2d(11, eps=1e-05, momentum=0.1, affine=True, track_running_stats=True)
              (2): GELU()
              (3): Conv2d(11, 1, kernel_size=(1, 1), stride=(1, 1))
            )
          )
          (drop_path): DropPath(drop_prob=0.057)
          (ffn): SGFN(
            (fc1): Linear(in_features=180, out_features=360, bias=True)
            (act): GELU()
            (sg): SpatialGate(
              (norm): LayerNorm((180,), eps=1e-05, elementwise_affine=True)
              (conv): Conv2d(180, 180, kernel_size=(3, 3), stride=(1, 1), padding=(1, 1), groups=180)
            )
            (fc2): Linear(in_features=180, out_features=180, bias=True)
            (drop): Dropout(p=0.0, inplace=False)
          )
          (norm2): LayerNorm((180,), eps=1e-05, elementwise_affine=True)
        )
        (3): DATB(
          (norm1): LayerNorm((180,), eps=1e-05, elementwise_affine=True)
          (attn): Adaptive_Channel_Attention(
            (qkv): Linear(in_features=180, out_features=540, bias=True)
            (attn_drop): Dropout(p=0.0, inplace=False)
            (proj): Linear(in_features=180, out_features=180, bias=True)
            (proj_drop): Dropout(p=0.0, inplace=False)
            (dwconv): Sequential(
              (0): Conv2d(180, 180, kernel_size=(3, 3), stride=(1, 1), padding=(1, 1), groups=180)
              (1): BatchNorm2d(180, eps=1e-05, momentum=0.1, affine=True, track_running_stats=True)
              (2): GELU()
            )
            (channel_interaction): Sequential(
              (0): AdaptiveAvgPool2d(output_size=1)
              (1): Conv2d(180, 22, kernel_size=(1, 1), stride=(1, 1))
              (2): BatchNorm2d(22, eps=1e-05, momentum=0.1, affine=True, track_running_stats=True)
              (3): GELU()
              (4): Conv2d(22, 180, kernel_size=(1, 1), stride=(1, 1))
            )
            (spatial_interaction): Sequential(
              (0): Conv2d(180, 11, kernel_size=(1, 1), stride=(1, 1))
              (1): BatchNorm2d(11, eps=1e-05, momentum=0.1, affine=True, track_running_stats=True)
              (2): GELU()
              (3): Conv2d(11, 1, kernel_size=(1, 1), stride=(1, 1))
            )
          )
          (drop_path): DropPath(drop_prob=0.060)
          (ffn): SGFN(
            (fc1): Linear(in_features=180, out_features=360, bias=True)
            (act): GELU()
            (sg): SpatialGate(
              (norm): LayerNorm((180,), eps=1e-05, elementwise_affine=True)
              (conv): Conv2d(180, 180, kernel_size=(3, 3), stride=(1, 1), padding=(1, 1), groups=180)
            )
            (fc2): Linear(in_features=180, out_features=180, bias=True)
            (drop): Dropout(p=0.0, inplace=False)
          )
          (norm2): LayerNorm((180,), eps=1e-05, elementwise_affine=True)
        )
        (4): DATB(
          (norm1): LayerNorm((180,), eps=1e-05, elementwise_affine=True)
          (attn): Adaptive_Spatial_Attention(
            (qkv): Linear(in_features=180, out_features=540, bias=True)
            (proj): Linear(in_features=180, out_features=180, bias=True)
            (proj_drop): Dropout(p=0.0, inplace=False)
            (attns): ModuleList(
              (0): Spatial_Attention(
                (pos): DynamicPosBias(
                  (pos_proj): Linear(in_features=2, out_features=5, bias=True)
                  (pos1): Sequential(
                    (0): LayerNorm((5,), eps=1e-05, elementwise_affine=True)
                    (1): ReLU(inplace=True)
                    (2): Linear(in_features=5, out_features=5, bias=True)
                  )
                  (pos2): Sequential(
                    (0): LayerNorm((5,), eps=1e-05, elementwise_affine=True)
                    (1): ReLU(inplace=True)
                    (2): Linear(in_features=5, out_features=5, bias=True)
                  )
                  (pos3): Sequential(
                    (0): LayerNorm((5,), eps=1e-05, elementwise_affine=True)
                    (1): ReLU(inplace=True)
                    (2): Linear(in_features=5, out_features=3, bias=True)
                  )
                )
                (attn_drop): Dropout(p=0.0, inplace=False)
              )
              (1): Spatial_Attention(
                (pos): DynamicPosBias(
                  (pos_proj): Linear(in_features=2, out_features=5, bias=True)
                  (pos1): Sequential(
                    (0): LayerNorm((5,), eps=1e-05, elementwise_affine=True)
                    (1): ReLU(inplace=True)
                    (2): Linear(in_features=5, out_features=5, bias=True)
                  )
                  (pos2): Sequential(
                    (0): LayerNorm((5,), eps=1e-05, elementwise_affine=True)
                    (1): ReLU(inplace=True)
                    (2): Linear(in_features=5, out_features=5, bias=True)
                  )
                  (pos3): Sequential(
                    (0): LayerNorm((5,), eps=1e-05, elementwise_affine=True)
                    (1): ReLU(inplace=True)
                    (2): Linear(in_features=5, out_features=3, bias=True)
                  )
                )
                (attn_drop): Dropout(p=0.0, inplace=False)
              )
            )
            (dwconv): Sequential(
              (0): Conv2d(180, 180, kernel_size=(3, 3), stride=(1, 1), padding=(1, 1), groups=180)
              (1): BatchNorm2d(180, eps=1e-05, momentum=0.1, affine=True, track_running_stats=True)
              (2): GELU()
            )
            (channel_interaction): Sequential(
              (0): AdaptiveAvgPool2d(output_size=1)
              (1): Conv2d(180, 22, kernel_size=(1, 1), stride=(1, 1))
              (2): BatchNorm2d(22, eps=1e-05, momentum=0.1, affine=True, track_running_stats=True)
              (3): GELU()
              (4): Conv2d(22, 180, kernel_size=(1, 1), stride=(1, 1))
            )
            (spatial_interaction): Sequential(
              (0): Conv2d(180, 11, kernel_size=(1, 1), stride=(1, 1))
              (1): BatchNorm2d(11, eps=1e-05, momentum=0.1, affine=True, track_running_stats=True)
              (2): GELU()
              (3): Conv2d(11, 1, kernel_size=(1, 1), stride=(1, 1))
            )
          )
          (drop_path): DropPath(drop_prob=0.063)
          (ffn): SGFN(
            (fc1): Linear(in_features=180, out_features=360, bias=True)
            (act): GELU()
            (sg): SpatialGate(
              (norm): LayerNorm((180,), eps=1e-05, elementwise_affine=True)
              (conv): Conv2d(180, 180, kernel_size=(3, 3), stride=(1, 1), padding=(1, 1), groups=180)
            )
            (fc2): Linear(in_features=180, out_features=180, bias=True)
            (drop): Dropout(p=0.0, inplace=False)
          )
          (norm2): LayerNorm((180,), eps=1e-05, elementwise_affine=True)
        )
        (5): DATB(
          (norm1): LayerNorm((180,), eps=1e-05, elementwise_affine=True)
          (attn): Adaptive_Channel_Attention(
            (qkv): Linear(in_features=180, out_features=540, bias=True)
            (attn_drop): Dropout(p=0.0, inplace=False)
            (proj): Linear(in_features=180, out_features=180, bias=True)
            (proj_drop): Dropout(p=0.0, inplace=False)
            (dwconv): Sequential(
              (0): Conv2d(180, 180, kernel_size=(3, 3), stride=(1, 1), padding=(1, 1), groups=180)
              (1): BatchNorm2d(180, eps=1e-05, momentum=0.1, affine=True, track_running_stats=True)
              (2): GELU()
            )
            (channel_interaction): Sequential(
              (0): AdaptiveAvgPool2d(output_size=1)
              (1): Conv2d(180, 22, kernel_size=(1, 1), stride=(1, 1))
              (2): BatchNorm2d(22, eps=1e-05, momentum=0.1, affine=True, track_running_stats=True)
              (3): GELU()
              (4): Conv2d(22, 180, kernel_size=(1, 1), stride=(1, 1))
            )
            (spatial_interaction): Sequential(
              (0): Conv2d(180, 11, kernel_size=(1, 1), stride=(1, 1))
              (1): BatchNorm2d(11, eps=1e-05, momentum=0.1, affine=True, track_running_stats=True)
              (2): GELU()
              (3): Conv2d(11, 1, kernel_size=(1, 1), stride=(1, 1))
            )
          )
          (drop_path): DropPath(drop_prob=0.066)
          (ffn): SGFN(
            (fc1): Linear(in_features=180, out_features=360, bias=True)
            (act): GELU()
            (sg): SpatialGate(
              (norm): LayerNorm((180,), eps=1e-05, elementwise_affine=True)
              (conv): Conv2d(180, 180, kernel_size=(3, 3), stride=(1, 1), padding=(1, 1), groups=180)
            )
            (fc2): Linear(in_features=180, out_features=180, bias=True)
            (drop): Dropout(p=0.0, inplace=False)
          )
          (norm2): LayerNorm((180,), eps=1e-05, elementwise_affine=True)
        )
      )
      (conv): Conv2d(180, 180, kernel_size=(3, 3), stride=(1, 1), padding=(1, 1))
    )
    (4): ResidualGroup(
      (blocks): ModuleList(
        (0): DATB(
          (norm1): LayerNorm((180,), eps=1e-05, elementwise_affine=True)
          (attn): Adaptive_Spatial_Attention(
            (qkv): Linear(in_features=180, out_features=540, bias=True)
            (proj): Linear(in_features=180, out_features=180, bias=True)
            (proj_drop): Dropout(p=0.0, inplace=False)
            (attns): ModuleList(
              (0): Spatial_Attention(
                (pos): DynamicPosBias(
                  (pos_proj): Linear(in_features=2, out_features=5, bias=True)
                  (pos1): Sequential(
                    (0): LayerNorm((5,), eps=1e-05, elementwise_affine=True)
                    (1): ReLU(inplace=True)
                    (2): Linear(in_features=5, out_features=5, bias=True)
                  )
                  (pos2): Sequential(
                    (0): LayerNorm((5,), eps=1e-05, elementwise_affine=True)
                    (1): ReLU(inplace=True)
                    (2): Linear(in_features=5, out_features=5, bias=True)
                  )
                  (pos3): Sequential(
                    (0): LayerNorm((5,), eps=1e-05, elementwise_affine=True)
                    (1): ReLU(inplace=True)
                    (2): Linear(in_features=5, out_features=3, bias=True)
                  )
                )
                (attn_drop): Dropout(p=0.0, inplace=False)
              )
              (1): Spatial_Attention(
                (pos): DynamicPosBias(
                  (pos_proj): Linear(in_features=2, out_features=5, bias=True)
                  (pos1): Sequential(
                    (0): LayerNorm((5,), eps=1e-05, elementwise_affine=True)
                    (1): ReLU(inplace=True)
                    (2): Linear(in_features=5, out_features=5, bias=True)
                  )
                  (pos2): Sequential(
                    (0): LayerNorm((5,), eps=1e-05, elementwise_affine=True)
                    (1): ReLU(inplace=True)
                    (2): Linear(in_features=5, out_features=5, bias=True)
                  )
                  (pos3): Sequential(
                    (0): LayerNorm((5,), eps=1e-05, elementwise_affine=True)
                    (1): ReLU(inplace=True)
                    (2): Linear(in_features=5, out_features=3, bias=True)
                  )
                )
                (attn_drop): Dropout(p=0.0, inplace=False)
              )
            )
            (dwconv): Sequential(
              (0): Conv2d(180, 180, kernel_size=(3, 3), stride=(1, 1), padding=(1, 1), groups=180)
              (1): BatchNorm2d(180, eps=1e-05, momentum=0.1, affine=True, track_running_stats=True)
              (2): GELU()
            )
            (channel_interaction): Sequential(
              (0): AdaptiveAvgPool2d(output_size=1)
              (1): Conv2d(180, 22, kernel_size=(1, 1), stride=(1, 1))
              (2): BatchNorm2d(22, eps=1e-05, momentum=0.1, affine=True, track_running_stats=True)
              (3): GELU()
              (4): Conv2d(22, 180, kernel_size=(1, 1), stride=(1, 1))
            )
            (spatial_interaction): Sequential(
              (0): Conv2d(180, 11, kernel_size=(1, 1), stride=(1, 1))
              (1): BatchNorm2d(11, eps=1e-05, momentum=0.1, affine=True, track_running_stats=True)
              (2): GELU()
              (3): Conv2d(11, 1, kernel_size=(1, 1), stride=(1, 1))
            )
          )
          (drop_path): DropPath(drop_prob=0.069)
          (ffn): SGFN(
            (fc1): Linear(in_features=180, out_features=360, bias=True)
            (act): GELU()
            (sg): SpatialGate(
              (norm): LayerNorm((180,), eps=1e-05, elementwise_affine=True)
              (conv): Conv2d(180, 180, kernel_size=(3, 3), stride=(1, 1), padding=(1, 1), groups=180)
            )
            (fc2): Linear(in_features=180, out_features=180, bias=True)
            (drop): Dropout(p=0.0, inplace=False)
          )
          (norm2): LayerNorm((180,), eps=1e-05, elementwise_affine=True)
        )
        (1): DATB(
          (norm1): LayerNorm((180,), eps=1e-05, elementwise_affine=True)
          (attn): Adaptive_Channel_Attention(
            (qkv): Linear(in_features=180, out_features=540, bias=True)
            (attn_drop): Dropout(p=0.0, inplace=False)
            (proj): Linear(in_features=180, out_features=180, bias=True)
            (proj_drop): Dropout(p=0.0, inplace=False)
            (dwconv): Sequential(
              (0): Conv2d(180, 180, kernel_size=(3, 3), stride=(1, 1), padding=(1, 1), groups=180)
              (1): BatchNorm2d(180, eps=1e-05, momentum=0.1, affine=True, track_running_stats=True)
              (2): GELU()
            )
            (channel_interaction): Sequential(
              (0): AdaptiveAvgPool2d(output_size=1)
              (1): Conv2d(180, 22, kernel_size=(1, 1), stride=(1, 1))
              (2): BatchNorm2d(22, eps=1e-05, momentum=0.1, affine=True, track_running_stats=True)
              (3): GELU()
              (4): Conv2d(22, 180, kernel_size=(1, 1), stride=(1, 1))
            )
            (spatial_interaction): Sequential(
              (0): Conv2d(180, 11, kernel_size=(1, 1), stride=(1, 1))
              (1): BatchNorm2d(11, eps=1e-05, momentum=0.1, affine=True, track_running_stats=True)
              (2): GELU()
              (3): Conv2d(11, 1, kernel_size=(1, 1), stride=(1, 1))
            )
          )
          (drop_path): DropPath(drop_prob=0.071)
          (ffn): SGFN(
            (fc1): Linear(in_features=180, out_features=360, bias=True)
            (act): GELU()
            (sg): SpatialGate(
              (norm): LayerNorm((180,), eps=1e-05, elementwise_affine=True)
              (conv): Conv2d(180, 180, kernel_size=(3, 3), stride=(1, 1), padding=(1, 1), groups=180)
            )
            (fc2): Linear(in_features=180, out_features=180, bias=True)
            (drop): Dropout(p=0.0, inplace=False)
          )
          (norm2): LayerNorm((180,), eps=1e-05, elementwise_affine=True)
        )
        (2): DATB(
          (norm1): LayerNorm((180,), eps=1e-05, elementwise_affine=True)
          (attn): Adaptive_Spatial_Attention(
            (qkv): Linear(in_features=180, out_features=540, bias=True)
            (proj): Linear(in_features=180, out_features=180, bias=True)
            (proj_drop): Dropout(p=0.0, inplace=False)
            (attns): ModuleList(
              (0): Spatial_Attention(
                (pos): DynamicPosBias(
                  (pos_proj): Linear(in_features=2, out_features=5, bias=True)
                  (pos1): Sequential(
                    (0): LayerNorm((5,), eps=1e-05, elementwise_affine=True)
                    (1): ReLU(inplace=True)
                    (2): Linear(in_features=5, out_features=5, bias=True)
                  )
                  (pos2): Sequential(
                    (0): LayerNorm((5,), eps=1e-05, elementwise_affine=True)
                    (1): ReLU(inplace=True)
                    (2): Linear(in_features=5, out_features=5, bias=True)
                  )
                  (pos3): Sequential(
                    (0): LayerNorm((5,), eps=1e-05, elementwise_affine=True)
                    (1): ReLU(inplace=True)
                    (2): Linear(in_features=5, out_features=3, bias=True)
                  )
                )
                (attn_drop): Dropout(p=0.0, inplace=False)
              )
              (1): Spatial_Attention(
                (pos): DynamicPosBias(
                  (pos_proj): Linear(in_features=2, out_features=5, bias=True)
                  (pos1): Sequential(
                    (0): LayerNorm((5,), eps=1e-05, elementwise_affine=True)
                    (1): ReLU(inplace=True)
                    (2): Linear(in_features=5, out_features=5, bias=True)
                  )
                  (pos2): Sequential(
                    (0): LayerNorm((5,), eps=1e-05, elementwise_affine=True)
                    (1): ReLU(inplace=True)
                    (2): Linear(in_features=5, out_features=5, bias=True)
                  )
                  (pos3): Sequential(
                    (0): LayerNorm((5,), eps=1e-05, elementwise_affine=True)
                    (1): ReLU(inplace=True)
                    (2): Linear(in_features=5, out_features=3, bias=True)
                  )
                )
                (attn_drop): Dropout(p=0.0, inplace=False)
              )
            )
            (dwconv): Sequential(
              (0): Conv2d(180, 180, kernel_size=(3, 3), stride=(1, 1), padding=(1, 1), groups=180)
              (1): BatchNorm2d(180, eps=1e-05, momentum=0.1, affine=True, track_running_stats=True)
              (2): GELU()
            )
            (channel_interaction): Sequential(
              (0): AdaptiveAvgPool2d(output_size=1)
              (1): Conv2d(180, 22, kernel_size=(1, 1), stride=(1, 1))
              (2): BatchNorm2d(22, eps=1e-05, momentum=0.1, affine=True, track_running_stats=True)
              (3): GELU()
              (4): Conv2d(22, 180, kernel_size=(1, 1), stride=(1, 1))
            )
            (spatial_interaction): Sequential(
              (0): Conv2d(180, 11, kernel_size=(1, 1), stride=(1, 1))
              (1): BatchNorm2d(11, eps=1e-05, momentum=0.1, affine=True, track_running_stats=True)
              (2): GELU()
              (3): Conv2d(11, 1, kernel_size=(1, 1), stride=(1, 1))
            )
          )
          (drop_path): DropPath(drop_prob=0.074)
          (ffn): SGFN(
            (fc1): Linear(in_features=180, out_features=360, bias=True)
            (act): GELU()
            (sg): SpatialGate(
              (norm): LayerNorm((180,), eps=1e-05, elementwise_affine=True)
              (conv): Conv2d(180, 180, kernel_size=(3, 3), stride=(1, 1), padding=(1, 1), groups=180)
            )
            (fc2): Linear(in_features=180, out_features=180, bias=True)
            (drop): Dropout(p=0.0, inplace=False)
          )
          (norm2): LayerNorm((180,), eps=1e-05, elementwise_affine=True)
        )
        (3): DATB(
          (norm1): LayerNorm((180,), eps=1e-05, elementwise_affine=True)
          (attn): Adaptive_Channel_Attention(
            (qkv): Linear(in_features=180, out_features=540, bias=True)
            (attn_drop): Dropout(p=0.0, inplace=False)
            (proj): Linear(in_features=180, out_features=180, bias=True)
            (proj_drop): Dropout(p=0.0, inplace=False)
            (dwconv): Sequential(
              (0): Conv2d(180, 180, kernel_size=(3, 3), stride=(1, 1), padding=(1, 1), groups=180)
              (1): BatchNorm2d(180, eps=1e-05, momentum=0.1, affine=True, track_running_stats=True)
              (2): GELU()
            )
            (channel_interaction): Sequential(
              (0): AdaptiveAvgPool2d(output_size=1)
              (1): Conv2d(180, 22, kernel_size=(1, 1), stride=(1, 1))
              (2): BatchNorm2d(22, eps=1e-05, momentum=0.1, affine=True, track_running_stats=True)
              (3): GELU()
              (4): Conv2d(22, 180, kernel_size=(1, 1), stride=(1, 1))
            )
            (spatial_interaction): Sequential(
              (0): Conv2d(180, 11, kernel_size=(1, 1), stride=(1, 1))
              (1): BatchNorm2d(11, eps=1e-05, momentum=0.1, affine=True, track_running_stats=True)
              (2): GELU()
              (3): Conv2d(11, 1, kernel_size=(1, 1), stride=(1, 1))
            )
          )
          (drop_path): DropPath(drop_prob=0.077)
          (ffn): SGFN(
            (fc1): Linear(in_features=180, out_features=360, bias=True)
            (act): GELU()
            (sg): SpatialGate(
              (norm): LayerNorm((180,), eps=1e-05, elementwise_affine=True)
              (conv): Conv2d(180, 180, kernel_size=(3, 3), stride=(1, 1), padding=(1, 1), groups=180)
            )
            (fc2): Linear(in_features=180, out_features=180, bias=True)
            (drop): Dropout(p=0.0, inplace=False)
          )
          (norm2): LayerNorm((180,), eps=1e-05, elementwise_affine=True)
        )
        (4): DATB(
          (norm1): LayerNorm((180,), eps=1e-05, elementwise_affine=True)
          (attn): Adaptive_Spatial_Attention(
            (qkv): Linear(in_features=180, out_features=540, bias=True)
            (proj): Linear(in_features=180, out_features=180, bias=True)
            (proj_drop): Dropout(p=0.0, inplace=False)
            (attns): ModuleList(
              (0): Spatial_Attention(
                (pos): DynamicPosBias(
                  (pos_proj): Linear(in_features=2, out_features=5, bias=True)
                  (pos1): Sequential(
                    (0): LayerNorm((5,), eps=1e-05, elementwise_affine=True)
                    (1): ReLU(inplace=True)
                    (2): Linear(in_features=5, out_features=5, bias=True)
                  )
                  (pos2): Sequential(
                    (0): LayerNorm((5,), eps=1e-05, elementwise_affine=True)
                    (1): ReLU(inplace=True)
                    (2): Linear(in_features=5, out_features=5, bias=True)
                  )
                  (pos3): Sequential(
                    (0): LayerNorm((5,), eps=1e-05, elementwise_affine=True)
                    (1): ReLU(inplace=True)
                    (2): Linear(in_features=5, out_features=3, bias=True)
                  )
                )
                (attn_drop): Dropout(p=0.0, inplace=False)
              )
              (1): Spatial_Attention(
                (pos): DynamicPosBias(
                  (pos_proj): Linear(in_features=2, out_features=5, bias=True)
                  (pos1): Sequential(
                    (0): LayerNorm((5,), eps=1e-05, elementwise_affine=True)
                    (1): ReLU(inplace=True)
                    (2): Linear(in_features=5, out_features=5, bias=True)
                  )
                  (pos2): Sequential(
                    (0): LayerNorm((5,), eps=1e-05, elementwise_affine=True)
                    (1): ReLU(inplace=True)
                    (2): Linear(in_features=5, out_features=5, bias=True)
                  )
                  (pos3): Sequential(
                    (0): LayerNorm((5,), eps=1e-05, elementwise_affine=True)
                    (1): ReLU(inplace=True)
                    (2): Linear(in_features=5, out_features=3, bias=True)
                  )
                )
                (attn_drop): Dropout(p=0.0, inplace=False)
              )
            )
            (dwconv): Sequential(
              (0): Conv2d(180, 180, kernel_size=(3, 3), stride=(1, 1), padding=(1, 1), groups=180)
              (1): BatchNorm2d(180, eps=1e-05, momentum=0.1, affine=True, track_running_stats=True)
              (2): GELU()
            )
            (channel_interaction): Sequential(
              (0): AdaptiveAvgPool2d(output_size=1)
              (1): Conv2d(180, 22, kernel_size=(1, 1), stride=(1, 1))
              (2): BatchNorm2d(22, eps=1e-05, momentum=0.1, affine=True, track_running_stats=True)
              (3): GELU()
              (4): Conv2d(22, 180, kernel_size=(1, 1), stride=(1, 1))
            )
            (spatial_interaction): Sequential(
              (0): Conv2d(180, 11, kernel_size=(1, 1), stride=(1, 1))
              (1): BatchNorm2d(11, eps=1e-05, momentum=0.1, affine=True, track_running_stats=True)
              (2): GELU()
              (3): Conv2d(11, 1, kernel_size=(1, 1), stride=(1, 1))
            )
          )
          (drop_path): DropPath(drop_prob=0.080)
          (ffn): SGFN(
            (fc1): Linear(in_features=180, out_features=360, bias=True)
            (act): GELU()
            (sg): SpatialGate(
              (norm): LayerNorm((180,), eps=1e-05, elementwise_affine=True)
              (conv): Conv2d(180, 180, kernel_size=(3, 3), stride=(1, 1), padding=(1, 1), groups=180)
            )
            (fc2): Linear(in_features=180, out_features=180, bias=True)
            (drop): Dropout(p=0.0, inplace=False)
          )
          (norm2): LayerNorm((180,), eps=1e-05, elementwise_affine=True)
        )
        (5): DATB(
          (norm1): LayerNorm((180,), eps=1e-05, elementwise_affine=True)
          (attn): Adaptive_Channel_Attention(
            (qkv): Linear(in_features=180, out_features=540, bias=True)
            (attn_drop): Dropout(p=0.0, inplace=False)
            (proj): Linear(in_features=180, out_features=180, bias=True)
            (proj_drop): Dropout(p=0.0, inplace=False)
            (dwconv): Sequential(
              (0): Conv2d(180, 180, kernel_size=(3, 3), stride=(1, 1), padding=(1, 1), groups=180)
              (1): BatchNorm2d(180, eps=1e-05, momentum=0.1, affine=True, track_running_stats=True)
              (2): GELU()
            )
            (channel_interaction): Sequential(
              (0): AdaptiveAvgPool2d(output_size=1)
              (1): Conv2d(180, 22, kernel_size=(1, 1), stride=(1, 1))
              (2): BatchNorm2d(22, eps=1e-05, momentum=0.1, affine=True, track_running_stats=True)
              (3): GELU()
              (4): Conv2d(22, 180, kernel_size=(1, 1), stride=(1, 1))
            )
            (spatial_interaction): Sequential(
              (0): Conv2d(180, 11, kernel_size=(1, 1), stride=(1, 1))
              (1): BatchNorm2d(11, eps=1e-05, momentum=0.1, affine=True, track_running_stats=True)
              (2): GELU()
              (3): Conv2d(11, 1, kernel_size=(1, 1), stride=(1, 1))
            )
          )
          (drop_path): DropPath(drop_prob=0.083)
          (ffn): SGFN(
            (fc1): Linear(in_features=180, out_features=360, bias=True)
            (act): GELU()
            (sg): SpatialGate(
              (norm): LayerNorm((180,), eps=1e-05, elementwise_affine=True)
              (conv): Conv2d(180, 180, kernel_size=(3, 3), stride=(1, 1), padding=(1, 1), groups=180)
            )
            (fc2): Linear(in_features=180, out_features=180, bias=True)
            (drop): Dropout(p=0.0, inplace=False)
          )
          (norm2): LayerNorm((180,), eps=1e-05, elementwise_affine=True)
        )
      )
      (conv): Conv2d(180, 180, kernel_size=(3, 3), stride=(1, 1), padding=(1, 1))
    )
    (5): ResidualGroup(
      (blocks): ModuleList(
        (0): DATB(
          (norm1): LayerNorm((180,), eps=1e-05, elementwise_affine=True)
          (attn): Adaptive_Spatial_Attention(
            (qkv): Linear(in_features=180, out_features=540, bias=True)
            (proj): Linear(in_features=180, out_features=180, bias=True)
            (proj_drop): Dropout(p=0.0, inplace=False)
            (attns): ModuleList(
              (0): Spatial_Attention(
                (pos): DynamicPosBias(
                  (pos_proj): Linear(in_features=2, out_features=5, bias=True)
                  (pos1): Sequential(
                    (0): LayerNorm((5,), eps=1e-05, elementwise_affine=True)
                    (1): ReLU(inplace=True)
                    (2): Linear(in_features=5, out_features=5, bias=True)
                  )
                  (pos2): Sequential(
                    (0): LayerNorm((5,), eps=1e-05, elementwise_affine=True)
                    (1): ReLU(inplace=True)
                    (2): Linear(in_features=5, out_features=5, bias=True)
                  )
                  (pos3): Sequential(
                    (0): LayerNorm((5,), eps=1e-05, elementwise_affine=True)
                    (1): ReLU(inplace=True)
                    (2): Linear(in_features=5, out_features=3, bias=True)
                  )
                )
                (attn_drop): Dropout(p=0.0, inplace=False)
              )
              (1): Spatial_Attention(
                (pos): DynamicPosBias(
                  (pos_proj): Linear(in_features=2, out_features=5, bias=True)
                  (pos1): Sequential(
                    (0): LayerNorm((5,), eps=1e-05, elementwise_affine=True)
                    (1): ReLU(inplace=True)
                    (2): Linear(in_features=5, out_features=5, bias=True)
                  )
                  (pos2): Sequential(
                    (0): LayerNorm((5,), eps=1e-05, elementwise_affine=True)
                    (1): ReLU(inplace=True)
                    (2): Linear(in_features=5, out_features=5, bias=True)
                  )
                  (pos3): Sequential(
                    (0): LayerNorm((5,), eps=1e-05, elementwise_affine=True)
                    (1): ReLU(inplace=True)
                    (2): Linear(in_features=5, out_features=3, bias=True)
                  )
                )
                (attn_drop): Dropout(p=0.0, inplace=False)
              )
            )
            (dwconv): Sequential(
              (0): Conv2d(180, 180, kernel_size=(3, 3), stride=(1, 1), padding=(1, 1), groups=180)
              (1): BatchNorm2d(180, eps=1e-05, momentum=0.1, affine=True, track_running_stats=True)
              (2): GELU()
            )
            (channel_interaction): Sequential(
              (0): AdaptiveAvgPool2d(output_size=1)
              (1): Conv2d(180, 22, kernel_size=(1, 1), stride=(1, 1))
              (2): BatchNorm2d(22, eps=1e-05, momentum=0.1, affine=True, track_running_stats=True)
              (3): GELU()
              (4): Conv2d(22, 180, kernel_size=(1, 1), stride=(1, 1))
            )
            (spatial_interaction): Sequential(
              (0): Conv2d(180, 11, kernel_size=(1, 1), stride=(1, 1))
              (1): BatchNorm2d(11, eps=1e-05, momentum=0.1, affine=True, track_running_stats=True)
              (2): GELU()
              (3): Conv2d(11, 1, kernel_size=(1, 1), stride=(1, 1))
            )
          )
          (drop_path): DropPath(drop_prob=0.086)
          (ffn): SGFN(
            (fc1): Linear(in_features=180, out_features=360, bias=True)
            (act): GELU()
            (sg): SpatialGate(
              (norm): LayerNorm((180,), eps=1e-05, elementwise_affine=True)
              (conv): Conv2d(180, 180, kernel_size=(3, 3), stride=(1, 1), padding=(1, 1), groups=180)
            )
            (fc2): Linear(in_features=180, out_features=180, bias=True)
            (drop): Dropout(p=0.0, inplace=False)
          )
          (norm2): LayerNorm((180,), eps=1e-05, elementwise_affine=True)
        )
        (1): DATB(
          (norm1): LayerNorm((180,), eps=1e-05, elementwise_affine=True)
          (attn): Adaptive_Channel_Attention(
            (qkv): Linear(in_features=180, out_features=540, bias=True)
            (attn_drop): Dropout(p=0.0, inplace=False)
            (proj): Linear(in_features=180, out_features=180, bias=True)
            (proj_drop): Dropout(p=0.0, inplace=False)
            (dwconv): Sequential(
              (0): Conv2d(180, 180, kernel_size=(3, 3), stride=(1, 1), padding=(1, 1), groups=180)
              (1): BatchNorm2d(180, eps=1e-05, momentum=0.1, affine=True, track_running_stats=True)
              (2): GELU()
            )
            (channel_interaction): Sequential(
              (0): AdaptiveAvgPool2d(output_size=1)
              (1): Conv2d(180, 22, kernel_size=(1, 1), stride=(1, 1))
              (2): BatchNorm2d(22, eps=1e-05, momentum=0.1, affine=True, track_running_stats=True)
              (3): GELU()
              (4): Conv2d(22, 180, kernel_size=(1, 1), stride=(1, 1))
            )
            (spatial_interaction): Sequential(
              (0): Conv2d(180, 11, kernel_size=(1, 1), stride=(1, 1))
              (1): BatchNorm2d(11, eps=1e-05, momentum=0.1, affine=True, track_running_stats=True)
              (2): GELU()
              (3): Conv2d(11, 1, kernel_size=(1, 1), stride=(1, 1))
            )
          )
          (drop_path): DropPath(drop_prob=0.089)
          (ffn): SGFN(
            (fc1): Linear(in_features=180, out_features=360, bias=True)
            (act): GELU()
            (sg): SpatialGate(
              (norm): LayerNorm((180,), eps=1e-05, elementwise_affine=True)
              (conv): Conv2d(180, 180, kernel_size=(3, 3), stride=(1, 1), padding=(1, 1), groups=180)
            )
            (fc2): Linear(in_features=180, out_features=180, bias=True)
            (drop): Dropout(p=0.0, inplace=False)
          )
          (norm2): LayerNorm((180,), eps=1e-05, elementwise_affine=True)
        )
        (2): DATB(
          (norm1): LayerNorm((180,), eps=1e-05, elementwise_affine=True)
          (attn): Adaptive_Spatial_Attention(
            (qkv): Linear(in_features=180, out_features=540, bias=True)
            (proj): Linear(in_features=180, out_features=180, bias=True)
            (proj_drop): Dropout(p=0.0, inplace=False)
            (attns): ModuleList(
              (0): Spatial_Attention(
                (pos): DynamicPosBias(
                  (pos_proj): Linear(in_features=2, out_features=5, bias=True)
                  (pos1): Sequential(
                    (0): LayerNorm((5,), eps=1e-05, elementwise_affine=True)
                    (1): ReLU(inplace=True)
                    (2): Linear(in_features=5, out_features=5, bias=True)
                  )
                  (pos2): Sequential(
                    (0): LayerNorm((5,), eps=1e-05, elementwise_affine=True)
                    (1): ReLU(inplace=True)
                    (2): Linear(in_features=5, out_features=5, bias=True)
                  )
                  (pos3): Sequential(
                    (0): LayerNorm((5,), eps=1e-05, elementwise_affine=True)
                    (1): ReLU(inplace=True)
                    (2): Linear(in_features=5, out_features=3, bias=True)
                  )
                )
                (attn_drop): Dropout(p=0.0, inplace=False)
              )
              (1): Spatial_Attention(
                (pos): DynamicPosBias(
                  (pos_proj): Linear(in_features=2, out_features=5, bias=True)
                  (pos1): Sequential(
                    (0): LayerNorm((5,), eps=1e-05, elementwise_affine=True)
                    (1): ReLU(inplace=True)
                    (2): Linear(in_features=5, out_features=5, bias=True)
                  )
                  (pos2): Sequential(
                    (0): LayerNorm((5,), eps=1e-05, elementwise_affine=True)
                    (1): ReLU(inplace=True)
                    (2): Linear(in_features=5, out_features=5, bias=True)
                  )
                  (pos3): Sequential(
                    (0): LayerNorm((5,), eps=1e-05, elementwise_affine=True)
                    (1): ReLU(inplace=True)
                    (2): Linear(in_features=5, out_features=3, bias=True)
                  )
                )
                (attn_drop): Dropout(p=0.0, inplace=False)
              )
            )
            (dwconv): Sequential(
              (0): Conv2d(180, 180, kernel_size=(3, 3), stride=(1, 1), padding=(1, 1), groups=180)
              (1): BatchNorm2d(180, eps=1e-05, momentum=0.1, affine=True, track_running_stats=True)
              (2): GELU()
            )
            (channel_interaction): Sequential(
              (0): AdaptiveAvgPool2d(output_size=1)
              (1): Conv2d(180, 22, kernel_size=(1, 1), stride=(1, 1))
              (2): BatchNorm2d(22, eps=1e-05, momentum=0.1, affine=True, track_running_stats=True)
              (3): GELU()
              (4): Conv2d(22, 180, kernel_size=(1, 1), stride=(1, 1))
            )
            (spatial_interaction): Sequential(
              (0): Conv2d(180, 11, kernel_size=(1, 1), stride=(1, 1))
              (1): BatchNorm2d(11, eps=1e-05, momentum=0.1, affine=True, track_running_stats=True)
              (2): GELU()
              (3): Conv2d(11, 1, kernel_size=(1, 1), stride=(1, 1))
            )
          )
          (drop_path): DropPath(drop_prob=0.091)
          (ffn): SGFN(
            (fc1): Linear(in_features=180, out_features=360, bias=True)
            (act): GELU()
            (sg): SpatialGate(
              (norm): LayerNorm((180,), eps=1e-05, elementwise_affine=True)
              (conv): Conv2d(180, 180, kernel_size=(3, 3), stride=(1, 1), padding=(1, 1), groups=180)
            )
            (fc2): Linear(in_features=180, out_features=180, bias=True)
            (drop): Dropout(p=0.0, inplace=False)
          )
          (norm2): LayerNorm((180,), eps=1e-05, elementwise_affine=True)
        )
        (3): DATB(
          (norm1): LayerNorm((180,), eps=1e-05, elementwise_affine=True)
          (attn): Adaptive_Channel_Attention(
            (qkv): Linear(in_features=180, out_features=540, bias=True)
            (attn_drop): Dropout(p=0.0, inplace=False)
            (proj): Linear(in_features=180, out_features=180, bias=True)
            (proj_drop): Dropout(p=0.0, inplace=False)
            (dwconv): Sequential(
              (0): Conv2d(180, 180, kernel_size=(3, 3), stride=(1, 1), padding=(1, 1), groups=180)
              (1): BatchNorm2d(180, eps=1e-05, momentum=0.1, affine=True, track_running_stats=True)
              (2): GELU()
            )
            (channel_interaction): Sequential(
              (0): AdaptiveAvgPool2d(output_size=1)
              (1): Conv2d(180, 22, kernel_size=(1, 1), stride=(1, 1))
              (2): BatchNorm2d(22, eps=1e-05, momentum=0.1, affine=True, track_running_stats=True)
              (3): GELU()
              (4): Conv2d(22, 180, kernel_size=(1, 1), stride=(1, 1))
            )
            (spatial_interaction): Sequential(
              (0): Conv2d(180, 11, kernel_size=(1, 1), stride=(1, 1))
              (1): BatchNorm2d(11, eps=1e-05, momentum=0.1, affine=True, track_running_stats=True)
              (2): GELU()
              (3): Conv2d(11, 1, kernel_size=(1, 1), stride=(1, 1))
            )
          )
          (drop_path): DropPath(drop_prob=0.094)
          (ffn): SGFN(
            (fc1): Linear(in_features=180, out_features=360, bias=True)
            (act): GELU()
            (sg): SpatialGate(
              (norm): LayerNorm((180,), eps=1e-05, elementwise_affine=True)
              (conv): Conv2d(180, 180, kernel_size=(3, 3), stride=(1, 1), padding=(1, 1), groups=180)
            )
            (fc2): Linear(in_features=180, out_features=180, bias=True)
            (drop): Dropout(p=0.0, inplace=False)
          )
          (norm2): LayerNorm((180,), eps=1e-05, elementwise_affine=True)
        )
        (4): DATB(
          (norm1): LayerNorm((180,), eps=1e-05, elementwise_affine=True)
          (attn): Adaptive_Spatial_Attention(
            (qkv): Linear(in_features=180, out_features=540, bias=True)
            (proj): Linear(in_features=180, out_features=180, bias=True)
            (proj_drop): Dropout(p=0.0, inplace=False)
            (attns): ModuleList(
              (0): Spatial_Attention(
                (pos): DynamicPosBias(
                  (pos_proj): Linear(in_features=2, out_features=5, bias=True)
                  (pos1): Sequential(
                    (0): LayerNorm((5,), eps=1e-05, elementwise_affine=True)
                    (1): ReLU(inplace=True)
                    (2): Linear(in_features=5, out_features=5, bias=True)
                  )
                  (pos2): Sequential(
                    (0): LayerNorm((5,), eps=1e-05, elementwise_affine=True)
                    (1): ReLU(inplace=True)
                    (2): Linear(in_features=5, out_features=5, bias=True)
                  )
                  (pos3): Sequential(
                    (0): LayerNorm((5,), eps=1e-05, elementwise_affine=True)
                    (1): ReLU(inplace=True)
                    (2): Linear(in_features=5, out_features=3, bias=True)
                  )
                )
                (attn_drop): Dropout(p=0.0, inplace=False)
              )
              (1): Spatial_Attention(
                (pos): DynamicPosBias(
                  (pos_proj): Linear(in_features=2, out_features=5, bias=True)
                  (pos1): Sequential(
                    (0): LayerNorm((5,), eps=1e-05, elementwise_affine=True)
                    (1): ReLU(inplace=True)
                    (2): Linear(in_features=5, out_features=5, bias=True)
                  )
                  (pos2): Sequential(
                    (0): LayerNorm((5,), eps=1e-05, elementwise_affine=True)
                    (1): ReLU(inplace=True)
                    (2): Linear(in_features=5, out_features=5, bias=True)
                  )
                  (pos3): Sequential(
                    (0): LayerNorm((5,), eps=1e-05, elementwise_affine=True)
                    (1): ReLU(inplace=True)
                    (2): Linear(in_features=5, out_features=3, bias=True)
                  )
                )
                (attn_drop): Dropout(p=0.0, inplace=False)
              )
            )
            (dwconv): Sequential(
              (0): Conv2d(180, 180, kernel_size=(3, 3), stride=(1, 1), padding=(1, 1), groups=180)
              (1): BatchNorm2d(180, eps=1e-05, momentum=0.1, affine=True, track_running_stats=True)
              (2): GELU()
            )
            (channel_interaction): Sequential(
              (0): AdaptiveAvgPool2d(output_size=1)
              (1): Conv2d(180, 22, kernel_size=(1, 1), stride=(1, 1))
              (2): BatchNorm2d(22, eps=1e-05, momentum=0.1, affine=True, track_running_stats=True)
              (3): GELU()
              (4): Conv2d(22, 180, kernel_size=(1, 1), stride=(1, 1))
            )
            (spatial_interaction): Sequential(
              (0): Conv2d(180, 11, kernel_size=(1, 1), stride=(1, 1))
              (1): BatchNorm2d(11, eps=1e-05, momentum=0.1, affine=True, track_running_stats=True)
              (2): GELU()
              (3): Conv2d(11, 1, kernel_size=(1, 1), stride=(1, 1))
            )
          )
          (drop_path): DropPath(drop_prob=0.097)
          (ffn): SGFN(
            (fc1): Linear(in_features=180, out_features=360, bias=True)
            (act): GELU()
            (sg): SpatialGate(
              (norm): LayerNorm((180,), eps=1e-05, elementwise_affine=True)
              (conv): Conv2d(180, 180, kernel_size=(3, 3), stride=(1, 1), padding=(1, 1), groups=180)
            )
            (fc2): Linear(in_features=180, out_features=180, bias=True)
            (drop): Dropout(p=0.0, inplace=False)
          )
          (norm2): LayerNorm((180,), eps=1e-05, elementwise_affine=True)
        )
        (5): DATB(
          (norm1): LayerNorm((180,), eps=1e-05, elementwise_affine=True)
          (attn): Adaptive_Channel_Attention(
            (qkv): Linear(in_features=180, out_features=540, bias=True)
            (attn_drop): Dropout(p=0.0, inplace=False)
            (proj): Linear(in_features=180, out_features=180, bias=True)
            (proj_drop): Dropout(p=0.0, inplace=False)
            (dwconv): Sequential(
              (0): Conv2d(180, 180, kernel_size=(3, 3), stride=(1, 1), padding=(1, 1), groups=180)
              (1): BatchNorm2d(180, eps=1e-05, momentum=0.1, affine=True, track_running_stats=True)
              (2): GELU()
            )
            (channel_interaction): Sequential(
              (0): AdaptiveAvgPool2d(output_size=1)
              (1): Conv2d(180, 22, kernel_size=(1, 1), stride=(1, 1))
              (2): BatchNorm2d(22, eps=1e-05, momentum=0.1, affine=True, track_running_stats=True)
              (3): GELU()
              (4): Conv2d(22, 180, kernel_size=(1, 1), stride=(1, 1))
            )
            (spatial_interaction): Sequential(
              (0): Conv2d(180, 11, kernel_size=(1, 1), stride=(1, 1))
              (1): BatchNorm2d(11, eps=1e-05, momentum=0.1, affine=True, track_running_stats=True)
              (2): GELU()
              (3): Conv2d(11, 1, kernel_size=(1, 1), stride=(1, 1))
            )
          )
          (drop_path): DropPath(drop_prob=0.100)
          (ffn): SGFN(
            (fc1): Linear(in_features=180, out_features=360, bias=True)
            (act): GELU()
            (sg): SpatialGate(
              (norm): LayerNorm((180,), eps=1e-05, elementwise_affine=True)
              (conv): Conv2d(180, 180, kernel_size=(3, 3), stride=(1, 1), padding=(1, 1), groups=180)
            )
            (fc2): Linear(in_features=180, out_features=180, bias=True)
            (drop): Dropout(p=0.0, inplace=False)
          )
          (norm2): LayerNorm((180,), eps=1e-05, elementwise_affine=True)
        )
      )
      (conv): Conv2d(180, 180, kernel_size=(3, 3), stride=(1, 1), padding=(1, 1))
    )
  )
  (norm): LayerNorm((180,), eps=1e-05, elementwise_affine=True)
  (conv_after_body): Conv2d(180, 180, kernel_size=(3, 3), stride=(1, 1), padding=(1, 1))
  (conv_before_upsample): Sequential(
    (0): Conv2d(180, 64, kernel_size=(3, 3), stride=(1, 1), padding=(1, 1))
    (1): LeakyReLU(negative_slope=0.01, inplace=True)
  )
  (upsample): Upsample(
    (0): Conv2d(64, 256, kernel_size=(3, 3), stride=(1, 1), padding=(1, 1))
    (1): PixelShuffle(upscale_factor=2)
    (2): Conv2d(64, 256, kernel_size=(3, 3), stride=(1, 1), padding=(1, 1))
    (3): PixelShuffle(upscale_factor=2)
  )
  (conv_last): Conv2d(64, 3, kernel_size=(3, 3), stride=(1, 1), padding=(1, 1))
)
2024-05-16 19:07:15,898 INFO: Loading DAT model from experiments/pretrained_models/DAT-S/DAT_S_x2.pth, with param key: [params].
2024-05-16 19:07:16,080 WARNING: Current net - loaded net:
2024-05-16 19:07:16,081 WARNING:   upsample.2.bias
2024-05-16 19:07:16,081 WARNING:   upsample.2.weight
2024-05-16 19:07:16,081 WARNING: Loaded net - current net:
…
